{
  "layers" : [
    {
      "pad_r" : 2,
      "fused_relu" : 0,
      "fused_tanh" : 0,
      "debug_info" : "input.1",
      "pad_fill_mode" : 0,
      "pad_b" : 2,
      "pad_l" : 2,
      "top" : "input.1",
      "blob_weights" : 3,
      "K" : 3,
      "blob_biases" : 1,
      "stride_x" : 2,
      "name" : "input.1",
      "has_batch_norm" : 0,
      "type" : "convolution",
      "n_groups" : 1,
      "pad_t" : 2,
      "stride_y" : 2,
      "has_biases" : 1,
      "C" : 32,
      "bottom" : "image",
      "weights" : {

      },
      "Nx" : 6,
      "pad_mode" : 0,
      "pad_value" : 0,
      "Ny" : 6,
      "n_parallel" : 1
    },
    {
      "bottom" : "input.1",
      "weights" : {

      },
      "mode" : 3,
      "debug_info" : "input.3__silu_sigmoid__",
      "top" : "input.3__silu_sigmoid__",
      "type" : "activation",
      "name" : "input.3__silu_sigmoid__"
    },
    {
      "bottom" : "input.1,input.3__silu_sigmoid__",
      "alpha" : 1,
      "operation" : 1,
      "weights" : {

      },
      "fused_relu" : 0,
      "debug_info" : "input.3",
      "top" : "input.3",
      "type" : "elementwise",
      "name" : "input.3",
      "beta" : 0
    },
    {
      "pad_r" : 1,
      "fused_relu" : 0,
      "fused_tanh" : 0,
      "debug_info" : "input.5",
      "pad_fill_mode" : 0,
      "pad_b" : 1,
      "pad_l" : 1,
      "top" : "input.5",
      "blob_weights" : 7,
      "K" : 32,
      "blob_biases" : 5,
      "stride_x" : 2,
      "name" : "input.5",
      "has_batch_norm" : 0,
      "type" : "convolution",
      "n_groups" : 1,
      "pad_t" : 1,
      "stride_y" : 2,
      "has_biases" : 1,
      "C" : 64,
      "bottom" : "input.3",
      "weights" : {

      },
      "Nx" : 3,
      "pad_mode" : 0,
      "pad_value" : 0,
      "Ny" : 3,
      "n_parallel" : 1
    },
    {
      "bottom" : "input.5",
      "weights" : {

      },
      "mode" : 3,
      "debug_info" : "input.7__silu_sigmoid__",
      "top" : "input.7__silu_sigmoid__",
      "type" : "activation",
      "name" : "input.7__silu_sigmoid__"
    },
    {
      "bottom" : "input.5,input.7__silu_sigmoid__",
      "alpha" : 1,
      "operation" : 1,
      "weights" : {

      },
      "fused_relu" : 0,
      "debug_info" : "input.7",
      "top" : "input.7",
      "type" : "elementwise",
      "name" : "input.7",
      "beta" : 0
    },
    {
      "pad_r" : 0,
      "fused_relu" : 0,
      "fused_tanh" : 0,
      "debug_info" : "input.9",
      "pad_fill_mode" : 0,
      "pad_b" : 0,
      "pad_l" : 0,
      "top" : "input.9",
      "blob_weights" : 11,
      "K" : 64,
      "blob_biases" : 9,
      "name" : "input.9",
      "has_batch_norm" : 0,
      "type" : "convolution",
      "n_groups" : 1,
      "pad_t" : 0,
      "has_biases" : 1,
      "C" : 32,
      "bottom" : "input.7",
      "weights" : {

      },
      "Nx" : 1,
      "pad_mode" : 0,
      "pad_value" : 0,
      "Ny" : 1,
      "n_parallel" : 1
    },
    {
      "bottom" : "input.9",
      "weights" : {

      },
      "mode" : 3,
      "debug_info" : "input.11__silu_sigmoid__",
      "top" : "input.11__silu_sigmoid__",
      "type" : "activation",
      "name" : "input.11__silu_sigmoid__"
    },
    {
      "bottom" : "input.9,input.11__silu_sigmoid__",
      "alpha" : 1,
      "operation" : 1,
      "weights" : {

      },
      "fused_relu" : 0,
      "debug_info" : "input.11",
      "top" : "input.11",
      "type" : "elementwise",
      "name" : "input.11",
      "beta" : 0
    },
    {
      "pad_r" : 0,
      "fused_relu" : 0,
      "fused_tanh" : 0,
      "debug_info" : "input.13",
      "pad_fill_mode" : 0,
      "pad_b" : 0,
      "pad_l" : 0,
      "top" : "input.13",
      "blob_weights" : 15,
      "K" : 32,
      "blob_biases" : 13,
      "name" : "input.13",
      "has_batch_norm" : 0,
      "type" : "convolution",
      "n_groups" : 1,
      "pad_t" : 0,
      "has_biases" : 1,
      "C" : 32,
      "bottom" : "input.11",
      "weights" : {

      },
      "Nx" : 1,
      "pad_mode" : 0,
      "pad_value" : 0,
      "Ny" : 1,
      "n_parallel" : 1
    },
    {
      "bottom" : "input.13",
      "weights" : {

      },
      "mode" : 3,
      "debug_info" : "input.15__silu_sigmoid__",
      "top" : "input.15__silu_sigmoid__",
      "type" : "activation",
      "name" : "input.15__silu_sigmoid__"
    },
    {
      "bottom" : "input.13,input.15__silu_sigmoid__",
      "alpha" : 1,
      "operation" : 1,
      "weights" : {

      },
      "fused_relu" : 0,
      "debug_info" : "input.15",
      "top" : "input.15",
      "type" : "elementwise",
      "name" : "input.15",
      "beta" : 0
    },
    {
      "pad_r" : 1,
      "fused_relu" : 0,
      "fused_tanh" : 0,
      "debug_info" : "input.17",
      "pad_fill_mode" : 0,
      "pad_b" : 1,
      "pad_l" : 1,
      "top" : "input.17",
      "blob_weights" : 19,
      "K" : 32,
      "blob_biases" : 17,
      "name" : "input.17",
      "has_batch_norm" : 0,
      "type" : "convolution",
      "n_groups" : 1,
      "pad_t" : 1,
      "has_biases" : 1,
      "C" : 32,
      "bottom" : "input.15",
      "weights" : {

      },
      "Nx" : 3,
      "pad_mode" : 0,
      "pad_value" : 0,
      "Ny" : 3,
      "n_parallel" : 1
    },
    {
      "bottom" : "input.17",
      "weights" : {

      },
      "mode" : 3,
      "debug_info" : "105__silu_sigmoid__",
      "top" : "105__silu_sigmoid__",
      "type" : "activation",
      "name" : "105__silu_sigmoid__"
    },
    {
      "bottom" : "input.17,105__silu_sigmoid__",
      "alpha" : 1,
      "operation" : 1,
      "weights" : {

      },
      "fused_relu" : 0,
      "debug_info" : "105",
      "top" : "105",
      "type" : "elementwise",
      "name" : "105",
      "beta" : 0
    },
    {
      "bottom" : "input.11,105",
      "alpha" : 1,
      "operation" : 0,
      "weights" : {

      },
      "fused_relu" : 0,
      "debug_info" : "106",
      "top" : "106",
      "type" : "elementwise",
      "name" : "106",
      "beta" : 0
    },
    {
      "pad_r" : 0,
      "fused_relu" : 0,
      "fused_tanh" : 0,
      "debug_info" : "input.19",
      "pad_fill_mode" : 0,
      "pad_b" : 0,
      "pad_l" : 0,
      "top" : "input.19",
      "blob_weights" : 23,
      "K" : 64,
      "blob_biases" : 21,
      "name" : "input.19",
      "has_batch_norm" : 0,
      "type" : "convolution",
      "n_groups" : 1,
      "pad_t" : 0,
      "has_biases" : 1,
      "C" : 32,
      "bottom" : "input.7",
      "weights" : {

      },
      "Nx" : 1,
      "pad_mode" : 0,
      "pad_value" : 0,
      "Ny" : 1,
      "n_parallel" : 1
    },
    {
      "bottom" : "input.19",
      "weights" : {

      },
      "mode" : 3,
      "debug_info" : "115__silu_sigmoid__",
      "top" : "115__silu_sigmoid__",
      "type" : "activation",
      "name" : "115__silu_sigmoid__"
    },
    {
      "bottom" : "input.19,115__silu_sigmoid__",
      "alpha" : 1,
      "operation" : 1,
      "weights" : {

      },
      "fused_relu" : 0,
      "debug_info" : "115",
      "top" : "115",
      "type" : "elementwise",
      "name" : "115",
      "beta" : 0
    },
    {
      "weights" : {

      },
      "debug_info" : "input.21",
      "top" : "input.21",
      "type" : "concat",
      "name" : "input.21",
      "bottom" : "106,115"
    },
    {
      "pad_r" : 0,
      "fused_relu" : 0,
      "fused_tanh" : 0,
      "debug_info" : "input.23",
      "pad_fill_mode" : 0,
      "pad_b" : 0,
      "pad_l" : 0,
      "top" : "input.23",
      "blob_weights" : 27,
      "K" : 64,
      "blob_biases" : 25,
      "name" : "input.23",
      "has_batch_norm" : 0,
      "type" : "convolution",
      "n_groups" : 1,
      "pad_t" : 0,
      "has_biases" : 1,
      "C" : 64,
      "bottom" : "input.21",
      "weights" : {

      },
      "Nx" : 1,
      "pad_mode" : 0,
      "pad_value" : 0,
      "Ny" : 1,
      "n_parallel" : 1
    },
    {
      "bottom" : "input.23",
      "weights" : {

      },
      "mode" : 3,
      "debug_info" : "input.25__silu_sigmoid__",
      "top" : "input.25__silu_sigmoid__",
      "type" : "activation",
      "name" : "input.25__silu_sigmoid__"
    },
    {
      "bottom" : "input.23,input.25__silu_sigmoid__",
      "alpha" : 1,
      "operation" : 1,
      "weights" : {

      },
      "fused_relu" : 0,
      "debug_info" : "input.25",
      "top" : "input.25",
      "type" : "elementwise",
      "name" : "input.25",
      "beta" : 0
    },
    {
      "pad_r" : 1,
      "fused_relu" : 0,
      "fused_tanh" : 0,
      "debug_info" : "input.27",
      "pad_fill_mode" : 0,
      "pad_b" : 1,
      "pad_l" : 1,
      "top" : "input.27",
      "blob_weights" : 31,
      "K" : 64,
      "blob_biases" : 29,
      "stride_x" : 2,
      "name" : "input.27",
      "has_batch_norm" : 0,
      "type" : "convolution",
      "n_groups" : 1,
      "pad_t" : 1,
      "stride_y" : 2,
      "has_biases" : 1,
      "C" : 128,
      "bottom" : "input.25",
      "weights" : {

      },
      "Nx" : 3,
      "pad_mode" : 0,
      "pad_value" : 0,
      "Ny" : 3,
      "n_parallel" : 1
    },
    {
      "bottom" : "input.27",
      "weights" : {

      },
      "mode" : 3,
      "debug_info" : "input.29__silu_sigmoid__",
      "top" : "input.29__silu_sigmoid__",
      "type" : "activation",
      "name" : "input.29__silu_sigmoid__"
    },
    {
      "bottom" : "input.27,input.29__silu_sigmoid__",
      "alpha" : 1,
      "operation" : 1,
      "weights" : {

      },
      "fused_relu" : 0,
      "debug_info" : "input.29",
      "top" : "input.29",
      "type" : "elementwise",
      "name" : "input.29",
      "beta" : 0
    },
    {
      "pad_r" : 0,
      "fused_relu" : 0,
      "fused_tanh" : 0,
      "debug_info" : "input.31",
      "pad_fill_mode" : 0,
      "pad_b" : 0,
      "pad_l" : 0,
      "top" : "input.31",
      "blob_weights" : 35,
      "K" : 128,
      "blob_biases" : 33,
      "name" : "input.31",
      "has_batch_norm" : 0,
      "type" : "convolution",
      "n_groups" : 1,
      "pad_t" : 0,
      "has_biases" : 1,
      "C" : 64,
      "bottom" : "input.29",
      "weights" : {

      },
      "Nx" : 1,
      "pad_mode" : 0,
      "pad_value" : 0,
      "Ny" : 1,
      "n_parallel" : 1
    },
    {
      "bottom" : "input.31",
      "weights" : {

      },
      "mode" : 3,
      "debug_info" : "input.33__silu_sigmoid__",
      "top" : "input.33__silu_sigmoid__",
      "type" : "activation",
      "name" : "input.33__silu_sigmoid__"
    },
    {
      "bottom" : "input.31,input.33__silu_sigmoid__",
      "alpha" : 1,
      "operation" : 1,
      "weights" : {

      },
      "fused_relu" : 0,
      "debug_info" : "input.33",
      "top" : "input.33",
      "type" : "elementwise",
      "name" : "input.33",
      "beta" : 0
    },
    {
      "pad_r" : 0,
      "fused_relu" : 0,
      "fused_tanh" : 0,
      "debug_info" : "input.35",
      "pad_fill_mode" : 0,
      "pad_b" : 0,
      "pad_l" : 0,
      "top" : "input.35",
      "blob_weights" : 39,
      "K" : 64,
      "blob_biases" : 37,
      "name" : "input.35",
      "has_batch_norm" : 0,
      "type" : "convolution",
      "n_groups" : 1,
      "pad_t" : 0,
      "has_biases" : 1,
      "C" : 64,
      "bottom" : "input.33",
      "weights" : {

      },
      "Nx" : 1,
      "pad_mode" : 0,
      "pad_value" : 0,
      "Ny" : 1,
      "n_parallel" : 1
    },
    {
      "bottom" : "input.35",
      "weights" : {

      },
      "mode" : 3,
      "debug_info" : "input.37__silu_sigmoid__",
      "top" : "input.37__silu_sigmoid__",
      "type" : "activation",
      "name" : "input.37__silu_sigmoid__"
    },
    {
      "bottom" : "input.35,input.37__silu_sigmoid__",
      "alpha" : 1,
      "operation" : 1,
      "weights" : {

      },
      "fused_relu" : 0,
      "debug_info" : "input.37",
      "top" : "input.37",
      "type" : "elementwise",
      "name" : "input.37",
      "beta" : 0
    },
    {
      "pad_r" : 1,
      "fused_relu" : 0,
      "fused_tanh" : 0,
      "debug_info" : "input.39",
      "pad_fill_mode" : 0,
      "pad_b" : 1,
      "pad_l" : 1,
      "top" : "input.39",
      "blob_weights" : 43,
      "K" : 64,
      "blob_biases" : 41,
      "name" : "input.39",
      "has_batch_norm" : 0,
      "type" : "convolution",
      "n_groups" : 1,
      "pad_t" : 1,
      "has_biases" : 1,
      "C" : 64,
      "bottom" : "input.37",
      "weights" : {

      },
      "Nx" : 3,
      "pad_mode" : 0,
      "pad_value" : 0,
      "Ny" : 3,
      "n_parallel" : 1
    },
    {
      "bottom" : "input.39",
      "weights" : {

      },
      "mode" : 3,
      "debug_info" : "179__silu_sigmoid__",
      "top" : "179__silu_sigmoid__",
      "type" : "activation",
      "name" : "179__silu_sigmoid__"
    },
    {
      "bottom" : "input.39,179__silu_sigmoid__",
      "alpha" : 1,
      "operation" : 1,
      "weights" : {

      },
      "fused_relu" : 0,
      "debug_info" : "179",
      "top" : "179",
      "type" : "elementwise",
      "name" : "179",
      "beta" : 0
    },
    {
      "bottom" : "input.33,179",
      "alpha" : 1,
      "operation" : 0,
      "weights" : {

      },
      "fused_relu" : 0,
      "debug_info" : "input.41",
      "top" : "input.41",
      "type" : "elementwise",
      "name" : "input.41",
      "beta" : 0
    },
    {
      "pad_r" : 0,
      "fused_relu" : 0,
      "fused_tanh" : 0,
      "debug_info" : "input.43",
      "pad_fill_mode" : 0,
      "pad_b" : 0,
      "pad_l" : 0,
      "top" : "input.43",
      "blob_weights" : 47,
      "K" : 64,
      "blob_biases" : 45,
      "name" : "input.43",
      "has_batch_norm" : 0,
      "type" : "convolution",
      "n_groups" : 1,
      "pad_t" : 0,
      "has_biases" : 1,
      "C" : 64,
      "bottom" : "input.41",
      "weights" : {

      },
      "Nx" : 1,
      "pad_mode" : 0,
      "pad_value" : 0,
      "Ny" : 1,
      "n_parallel" : 1
    },
    {
      "bottom" : "input.43",
      "weights" : {

      },
      "mode" : 3,
      "debug_info" : "input.45__silu_sigmoid__",
      "top" : "input.45__silu_sigmoid__",
      "type" : "activation",
      "name" : "input.45__silu_sigmoid__"
    },
    {
      "bottom" : "input.43,input.45__silu_sigmoid__",
      "alpha" : 1,
      "operation" : 1,
      "weights" : {

      },
      "fused_relu" : 0,
      "debug_info" : "input.45",
      "top" : "input.45",
      "type" : "elementwise",
      "name" : "input.45",
      "beta" : 0
    },
    {
      "pad_r" : 1,
      "fused_relu" : 0,
      "fused_tanh" : 0,
      "debug_info" : "input.47",
      "pad_fill_mode" : 0,
      "pad_b" : 1,
      "pad_l" : 1,
      "top" : "input.47",
      "blob_weights" : 51,
      "K" : 64,
      "blob_biases" : 49,
      "name" : "input.47",
      "has_batch_norm" : 0,
      "type" : "convolution",
      "n_groups" : 1,
      "pad_t" : 1,
      "has_biases" : 1,
      "C" : 64,
      "bottom" : "input.45",
      "weights" : {

      },
      "Nx" : 3,
      "pad_mode" : 0,
      "pad_value" : 0,
      "Ny" : 3,
      "n_parallel" : 1
    },
    {
      "bottom" : "input.47",
      "weights" : {

      },
      "mode" : 3,
      "debug_info" : "200__silu_sigmoid__",
      "top" : "200__silu_sigmoid__",
      "type" : "activation",
      "name" : "200__silu_sigmoid__"
    },
    {
      "bottom" : "input.47,200__silu_sigmoid__",
      "alpha" : 1,
      "operation" : 1,
      "weights" : {

      },
      "fused_relu" : 0,
      "debug_info" : "200",
      "top" : "200",
      "type" : "elementwise",
      "name" : "200",
      "beta" : 0
    },
    {
      "bottom" : "input.41,200",
      "alpha" : 1,
      "operation" : 0,
      "weights" : {

      },
      "fused_relu" : 0,
      "debug_info" : "201",
      "top" : "201",
      "type" : "elementwise",
      "name" : "201",
      "beta" : 0
    },
    {
      "pad_r" : 0,
      "fused_relu" : 0,
      "fused_tanh" : 0,
      "debug_info" : "input.49",
      "pad_fill_mode" : 0,
      "pad_b" : 0,
      "pad_l" : 0,
      "top" : "input.49",
      "blob_weights" : 55,
      "K" : 128,
      "blob_biases" : 53,
      "name" : "input.49",
      "has_batch_norm" : 0,
      "type" : "convolution",
      "n_groups" : 1,
      "pad_t" : 0,
      "has_biases" : 1,
      "C" : 64,
      "bottom" : "input.29",
      "weights" : {

      },
      "Nx" : 1,
      "pad_mode" : 0,
      "pad_value" : 0,
      "Ny" : 1,
      "n_parallel" : 1
    },
    {
      "bottom" : "input.49",
      "weights" : {

      },
      "mode" : 3,
      "debug_info" : "210__silu_sigmoid__",
      "top" : "210__silu_sigmoid__",
      "type" : "activation",
      "name" : "210__silu_sigmoid__"
    },
    {
      "bottom" : "input.49,210__silu_sigmoid__",
      "alpha" : 1,
      "operation" : 1,
      "weights" : {

      },
      "fused_relu" : 0,
      "debug_info" : "210",
      "top" : "210",
      "type" : "elementwise",
      "name" : "210",
      "beta" : 0
    },
    {
      "weights" : {

      },
      "debug_info" : "input.51",
      "top" : "input.51",
      "type" : "concat",
      "name" : "input.51",
      "bottom" : "201,210"
    },
    {
      "pad_r" : 0,
      "fused_relu" : 0,
      "fused_tanh" : 0,
      "debug_info" : "input.53",
      "pad_fill_mode" : 0,
      "pad_b" : 0,
      "pad_l" : 0,
      "top" : "input.53",
      "blob_weights" : 59,
      "K" : 128,
      "blob_biases" : 57,
      "name" : "input.53",
      "has_batch_norm" : 0,
      "type" : "convolution",
      "n_groups" : 1,
      "pad_t" : 0,
      "has_biases" : 1,
      "C" : 128,
      "bottom" : "input.51",
      "weights" : {

      },
      "Nx" : 1,
      "pad_mode" : 0,
      "pad_value" : 0,
      "Ny" : 1,
      "n_parallel" : 1
    },
    {
      "bottom" : "input.53",
      "weights" : {

      },
      "mode" : 3,
      "debug_info" : "input.55__silu_sigmoid__",
      "top" : "input.55__silu_sigmoid__",
      "type" : "activation",
      "name" : "input.55__silu_sigmoid__"
    },
    {
      "bottom" : "input.53,input.55__silu_sigmoid__",
      "alpha" : 1,
      "operation" : 1,
      "weights" : {

      },
      "fused_relu" : 0,
      "debug_info" : "input.55",
      "top" : "input.55",
      "type" : "elementwise",
      "name" : "input.55",
      "beta" : 0
    },
    {
      "pad_r" : 1,
      "fused_relu" : 0,
      "fused_tanh" : 0,
      "debug_info" : "input.57",
      "pad_fill_mode" : 0,
      "pad_b" : 1,
      "pad_l" : 1,
      "top" : "input.57",
      "blob_weights" : 63,
      "K" : 128,
      "blob_biases" : 61,
      "stride_x" : 2,
      "name" : "input.57",
      "has_batch_norm" : 0,
      "type" : "convolution",
      "n_groups" : 1,
      "pad_t" : 1,
      "stride_y" : 2,
      "has_biases" : 1,
      "C" : 256,
      "bottom" : "input.55",
      "weights" : {

      },
      "Nx" : 3,
      "pad_mode" : 0,
      "pad_value" : 0,
      "Ny" : 3,
      "n_parallel" : 1
    },
    {
      "bottom" : "input.57",
      "weights" : {

      },
      "mode" : 3,
      "debug_info" : "input.59__silu_sigmoid__",
      "top" : "input.59__silu_sigmoid__",
      "type" : "activation",
      "name" : "input.59__silu_sigmoid__"
    },
    {
      "bottom" : "input.57,input.59__silu_sigmoid__",
      "alpha" : 1,
      "operation" : 1,
      "weights" : {

      },
      "fused_relu" : 0,
      "debug_info" : "input.59",
      "top" : "input.59",
      "type" : "elementwise",
      "name" : "input.59",
      "beta" : 0
    },
    {
      "pad_r" : 0,
      "fused_relu" : 0,
      "fused_tanh" : 0,
      "debug_info" : "input.61",
      "pad_fill_mode" : 0,
      "pad_b" : 0,
      "pad_l" : 0,
      "top" : "input.61",
      "blob_weights" : 67,
      "K" : 256,
      "blob_biases" : 65,
      "name" : "input.61",
      "has_batch_norm" : 0,
      "type" : "convolution",
      "n_groups" : 1,
      "pad_t" : 0,
      "has_biases" : 1,
      "C" : 128,
      "bottom" : "input.59",
      "weights" : {

      },
      "Nx" : 1,
      "pad_mode" : 0,
      "pad_value" : 0,
      "Ny" : 1,
      "n_parallel" : 1
    },
    {
      "bottom" : "input.61",
      "weights" : {

      },
      "mode" : 3,
      "debug_info" : "input.63__silu_sigmoid__",
      "top" : "input.63__silu_sigmoid__",
      "type" : "activation",
      "name" : "input.63__silu_sigmoid__"
    },
    {
      "bottom" : "input.61,input.63__silu_sigmoid__",
      "alpha" : 1,
      "operation" : 1,
      "weights" : {

      },
      "fused_relu" : 0,
      "debug_info" : "input.63",
      "top" : "input.63",
      "type" : "elementwise",
      "name" : "input.63",
      "beta" : 0
    },
    {
      "pad_r" : 0,
      "fused_relu" : 0,
      "fused_tanh" : 0,
      "debug_info" : "input.65",
      "pad_fill_mode" : 0,
      "pad_b" : 0,
      "pad_l" : 0,
      "top" : "input.65",
      "blob_weights" : 71,
      "K" : 128,
      "blob_biases" : 69,
      "name" : "input.65",
      "has_batch_norm" : 0,
      "type" : "convolution",
      "n_groups" : 1,
      "pad_t" : 0,
      "has_biases" : 1,
      "C" : 128,
      "bottom" : "input.63",
      "weights" : {

      },
      "Nx" : 1,
      "pad_mode" : 0,
      "pad_value" : 0,
      "Ny" : 1,
      "n_parallel" : 1
    },
    {
      "bottom" : "input.65",
      "weights" : {

      },
      "mode" : 3,
      "debug_info" : "input.67__silu_sigmoid__",
      "top" : "input.67__silu_sigmoid__",
      "type" : "activation",
      "name" : "input.67__silu_sigmoid__"
    },
    {
      "bottom" : "input.65,input.67__silu_sigmoid__",
      "alpha" : 1,
      "operation" : 1,
      "weights" : {

      },
      "fused_relu" : 0,
      "debug_info" : "input.67",
      "top" : "input.67",
      "type" : "elementwise",
      "name" : "input.67",
      "beta" : 0
    },
    {
      "pad_r" : 1,
      "fused_relu" : 0,
      "fused_tanh" : 0,
      "debug_info" : "input.69",
      "pad_fill_mode" : 0,
      "pad_b" : 1,
      "pad_l" : 1,
      "top" : "input.69",
      "blob_weights" : 75,
      "K" : 128,
      "blob_biases" : 73,
      "name" : "input.69",
      "has_batch_norm" : 0,
      "type" : "convolution",
      "n_groups" : 1,
      "pad_t" : 1,
      "has_biases" : 1,
      "C" : 128,
      "bottom" : "input.67",
      "weights" : {

      },
      "Nx" : 3,
      "pad_mode" : 0,
      "pad_value" : 0,
      "Ny" : 3,
      "n_parallel" : 1
    },
    {
      "bottom" : "input.69",
      "weights" : {

      },
      "mode" : 3,
      "debug_info" : "275__silu_sigmoid__",
      "top" : "275__silu_sigmoid__",
      "type" : "activation",
      "name" : "275__silu_sigmoid__"
    },
    {
      "bottom" : "input.69,275__silu_sigmoid__",
      "alpha" : 1,
      "operation" : 1,
      "weights" : {

      },
      "fused_relu" : 0,
      "debug_info" : "275",
      "top" : "275",
      "type" : "elementwise",
      "name" : "275",
      "beta" : 0
    },
    {
      "bottom" : "input.63,275",
      "alpha" : 1,
      "operation" : 0,
      "weights" : {

      },
      "fused_relu" : 0,
      "debug_info" : "input.71",
      "top" : "input.71",
      "type" : "elementwise",
      "name" : "input.71",
      "beta" : 0
    },
    {
      "pad_r" : 0,
      "fused_relu" : 0,
      "fused_tanh" : 0,
      "debug_info" : "input.73",
      "pad_fill_mode" : 0,
      "pad_b" : 0,
      "pad_l" : 0,
      "top" : "input.73",
      "blob_weights" : 79,
      "K" : 128,
      "blob_biases" : 77,
      "name" : "input.73",
      "has_batch_norm" : 0,
      "type" : "convolution",
      "n_groups" : 1,
      "pad_t" : 0,
      "has_biases" : 1,
      "C" : 128,
      "bottom" : "input.71",
      "weights" : {

      },
      "Nx" : 1,
      "pad_mode" : 0,
      "pad_value" : 0,
      "Ny" : 1,
      "n_parallel" : 1
    },
    {
      "bottom" : "input.73",
      "weights" : {

      },
      "mode" : 3,
      "debug_info" : "input.75__silu_sigmoid__",
      "top" : "input.75__silu_sigmoid__",
      "type" : "activation",
      "name" : "input.75__silu_sigmoid__"
    },
    {
      "bottom" : "input.73,input.75__silu_sigmoid__",
      "alpha" : 1,
      "operation" : 1,
      "weights" : {

      },
      "fused_relu" : 0,
      "debug_info" : "input.75",
      "top" : "input.75",
      "type" : "elementwise",
      "name" : "input.75",
      "beta" : 0
    },
    {
      "pad_r" : 1,
      "fused_relu" : 0,
      "fused_tanh" : 0,
      "debug_info" : "input.77",
      "pad_fill_mode" : 0,
      "pad_b" : 1,
      "pad_l" : 1,
      "top" : "input.77",
      "blob_weights" : 83,
      "K" : 128,
      "blob_biases" : 81,
      "name" : "input.77",
      "has_batch_norm" : 0,
      "type" : "convolution",
      "n_groups" : 1,
      "pad_t" : 1,
      "has_biases" : 1,
      "C" : 128,
      "bottom" : "input.75",
      "weights" : {

      },
      "Nx" : 3,
      "pad_mode" : 0,
      "pad_value" : 0,
      "Ny" : 3,
      "n_parallel" : 1
    },
    {
      "bottom" : "input.77",
      "weights" : {

      },
      "mode" : 3,
      "debug_info" : "296__silu_sigmoid__",
      "top" : "296__silu_sigmoid__",
      "type" : "activation",
      "name" : "296__silu_sigmoid__"
    },
    {
      "bottom" : "input.77,296__silu_sigmoid__",
      "alpha" : 1,
      "operation" : 1,
      "weights" : {

      },
      "fused_relu" : 0,
      "debug_info" : "296",
      "top" : "296",
      "type" : "elementwise",
      "name" : "296",
      "beta" : 0
    },
    {
      "bottom" : "input.71,296",
      "alpha" : 1,
      "operation" : 0,
      "weights" : {

      },
      "fused_relu" : 0,
      "debug_info" : "input.79",
      "top" : "input.79",
      "type" : "elementwise",
      "name" : "input.79",
      "beta" : 0
    },
    {
      "pad_r" : 0,
      "fused_relu" : 0,
      "fused_tanh" : 0,
      "debug_info" : "input.81",
      "pad_fill_mode" : 0,
      "pad_b" : 0,
      "pad_l" : 0,
      "top" : "input.81",
      "blob_weights" : 87,
      "K" : 128,
      "blob_biases" : 85,
      "name" : "input.81",
      "has_batch_norm" : 0,
      "type" : "convolution",
      "n_groups" : 1,
      "pad_t" : 0,
      "has_biases" : 1,
      "C" : 128,
      "bottom" : "input.79",
      "weights" : {

      },
      "Nx" : 1,
      "pad_mode" : 0,
      "pad_value" : 0,
      "Ny" : 1,
      "n_parallel" : 1
    },
    {
      "bottom" : "input.81",
      "weights" : {

      },
      "mode" : 3,
      "debug_info" : "input.83__silu_sigmoid__",
      "top" : "input.83__silu_sigmoid__",
      "type" : "activation",
      "name" : "input.83__silu_sigmoid__"
    },
    {
      "bottom" : "input.81,input.83__silu_sigmoid__",
      "alpha" : 1,
      "operation" : 1,
      "weights" : {

      },
      "fused_relu" : 0,
      "debug_info" : "input.83",
      "top" : "input.83",
      "type" : "elementwise",
      "name" : "input.83",
      "beta" : 0
    },
    {
      "pad_r" : 1,
      "fused_relu" : 0,
      "fused_tanh" : 0,
      "debug_info" : "input.85",
      "pad_fill_mode" : 0,
      "pad_b" : 1,
      "pad_l" : 1,
      "top" : "input.85",
      "blob_weights" : 91,
      "K" : 128,
      "blob_biases" : 89,
      "name" : "input.85",
      "has_batch_norm" : 0,
      "type" : "convolution",
      "n_groups" : 1,
      "pad_t" : 1,
      "has_biases" : 1,
      "C" : 128,
      "bottom" : "input.83",
      "weights" : {

      },
      "Nx" : 3,
      "pad_mode" : 0,
      "pad_value" : 0,
      "Ny" : 3,
      "n_parallel" : 1
    },
    {
      "bottom" : "input.85",
      "weights" : {

      },
      "mode" : 3,
      "debug_info" : "317__silu_sigmoid__",
      "top" : "317__silu_sigmoid__",
      "type" : "activation",
      "name" : "317__silu_sigmoid__"
    },
    {
      "bottom" : "input.85,317__silu_sigmoid__",
      "alpha" : 1,
      "operation" : 1,
      "weights" : {

      },
      "fused_relu" : 0,
      "debug_info" : "317",
      "top" : "317",
      "type" : "elementwise",
      "name" : "317",
      "beta" : 0
    },
    {
      "bottom" : "input.79,317",
      "alpha" : 1,
      "operation" : 0,
      "weights" : {

      },
      "fused_relu" : 0,
      "debug_info" : "318",
      "top" : "318",
      "type" : "elementwise",
      "name" : "318",
      "beta" : 0
    },
    {
      "pad_r" : 0,
      "fused_relu" : 0,
      "fused_tanh" : 0,
      "debug_info" : "input.87",
      "pad_fill_mode" : 0,
      "pad_b" : 0,
      "pad_l" : 0,
      "top" : "input.87",
      "blob_weights" : 95,
      "K" : 256,
      "blob_biases" : 93,
      "name" : "input.87",
      "has_batch_norm" : 0,
      "type" : "convolution",
      "n_groups" : 1,
      "pad_t" : 0,
      "has_biases" : 1,
      "C" : 128,
      "bottom" : "input.59",
      "weights" : {

      },
      "Nx" : 1,
      "pad_mode" : 0,
      "pad_value" : 0,
      "Ny" : 1,
      "n_parallel" : 1
    },
    {
      "bottom" : "input.87",
      "weights" : {

      },
      "mode" : 3,
      "debug_info" : "327__silu_sigmoid__",
      "top" : "327__silu_sigmoid__",
      "type" : "activation",
      "name" : "327__silu_sigmoid__"
    },
    {
      "bottom" : "input.87,327__silu_sigmoid__",
      "alpha" : 1,
      "operation" : 1,
      "weights" : {

      },
      "fused_relu" : 0,
      "debug_info" : "327",
      "top" : "327",
      "type" : "elementwise",
      "name" : "327",
      "beta" : 0
    },
    {
      "weights" : {

      },
      "debug_info" : "input.89",
      "top" : "input.89",
      "type" : "concat",
      "name" : "input.89",
      "bottom" : "318,327"
    },
    {
      "pad_r" : 0,
      "fused_relu" : 0,
      "fused_tanh" : 0,
      "debug_info" : "input.91",
      "pad_fill_mode" : 0,
      "pad_b" : 0,
      "pad_l" : 0,
      "top" : "input.91",
      "blob_weights" : 99,
      "K" : 256,
      "blob_biases" : 97,
      "name" : "input.91",
      "has_batch_norm" : 0,
      "type" : "convolution",
      "n_groups" : 1,
      "pad_t" : 0,
      "has_biases" : 1,
      "C" : 256,
      "bottom" : "input.89",
      "weights" : {

      },
      "Nx" : 1,
      "pad_mode" : 0,
      "pad_value" : 0,
      "Ny" : 1,
      "n_parallel" : 1
    },
    {
      "bottom" : "input.91",
      "weights" : {

      },
      "mode" : 3,
      "debug_info" : "input.93__silu_sigmoid__",
      "top" : "input.93__silu_sigmoid__",
      "type" : "activation",
      "name" : "input.93__silu_sigmoid__"
    },
    {
      "bottom" : "input.91,input.93__silu_sigmoid__",
      "alpha" : 1,
      "operation" : 1,
      "weights" : {

      },
      "fused_relu" : 0,
      "debug_info" : "input.93",
      "top" : "input.93",
      "type" : "elementwise",
      "name" : "input.93",
      "beta" : 0
    },
    {
      "pad_r" : 1,
      "fused_relu" : 0,
      "fused_tanh" : 0,
      "debug_info" : "input.95",
      "pad_fill_mode" : 0,
      "pad_b" : 1,
      "pad_l" : 1,
      "top" : "input.95",
      "blob_weights" : 103,
      "K" : 256,
      "blob_biases" : 101,
      "stride_x" : 2,
      "name" : "input.95",
      "has_batch_norm" : 0,
      "type" : "convolution",
      "n_groups" : 1,
      "pad_t" : 1,
      "stride_y" : 2,
      "has_biases" : 1,
      "C" : 512,
      "bottom" : "input.93",
      "weights" : {

      },
      "Nx" : 3,
      "pad_mode" : 0,
      "pad_value" : 0,
      "Ny" : 3,
      "n_parallel" : 1
    },
    {
      "bottom" : "input.95",
      "weights" : {

      },
      "mode" : 3,
      "debug_info" : "input.97__silu_sigmoid__",
      "top" : "input.97__silu_sigmoid__",
      "type" : "activation",
      "name" : "input.97__silu_sigmoid__"
    },
    {
      "bottom" : "input.95,input.97__silu_sigmoid__",
      "alpha" : 1,
      "operation" : 1,
      "weights" : {

      },
      "fused_relu" : 0,
      "debug_info" : "input.97",
      "top" : "input.97",
      "type" : "elementwise",
      "name" : "input.97",
      "beta" : 0
    },
    {
      "pad_r" : 0,
      "fused_relu" : 0,
      "fused_tanh" : 0,
      "debug_info" : "input.99",
      "pad_fill_mode" : 0,
      "pad_b" : 0,
      "pad_l" : 0,
      "top" : "input.99",
      "blob_weights" : 107,
      "K" : 512,
      "blob_biases" : 105,
      "name" : "input.99",
      "has_batch_norm" : 0,
      "type" : "convolution",
      "n_groups" : 1,
      "pad_t" : 0,
      "has_biases" : 1,
      "C" : 256,
      "bottom" : "input.97",
      "weights" : {

      },
      "Nx" : 1,
      "pad_mode" : 0,
      "pad_value" : 0,
      "Ny" : 1,
      "n_parallel" : 1
    },
    {
      "bottom" : "input.99",
      "weights" : {

      },
      "mode" : 3,
      "debug_info" : "input.101__silu_sigmoid__",
      "top" : "input.101__silu_sigmoid__",
      "type" : "activation",
      "name" : "input.101__silu_sigmoid__"
    },
    {
      "bottom" : "input.99,input.101__silu_sigmoid__",
      "alpha" : 1,
      "operation" : 1,
      "weights" : {

      },
      "fused_relu" : 0,
      "debug_info" : "input.101",
      "top" : "input.101",
      "type" : "elementwise",
      "name" : "input.101",
      "beta" : 0
    },
    {
      "pad_r" : 0,
      "fused_relu" : 0,
      "fused_tanh" : 0,
      "debug_info" : "input.103",
      "pad_fill_mode" : 0,
      "pad_b" : 0,
      "pad_l" : 0,
      "top" : "input.103",
      "blob_weights" : 111,
      "K" : 256,
      "blob_biases" : 109,
      "name" : "input.103",
      "has_batch_norm" : 0,
      "type" : "convolution",
      "n_groups" : 1,
      "pad_t" : 0,
      "has_biases" : 1,
      "C" : 256,
      "bottom" : "input.101",
      "weights" : {

      },
      "Nx" : 1,
      "pad_mode" : 0,
      "pad_value" : 0,
      "Ny" : 1,
      "n_parallel" : 1
    },
    {
      "bottom" : "input.103",
      "weights" : {

      },
      "mode" : 3,
      "debug_info" : "input.105__silu_sigmoid__",
      "top" : "input.105__silu_sigmoid__",
      "type" : "activation",
      "name" : "input.105__silu_sigmoid__"
    },
    {
      "bottom" : "input.103,input.105__silu_sigmoid__",
      "alpha" : 1,
      "operation" : 1,
      "weights" : {

      },
      "fused_relu" : 0,
      "debug_info" : "input.105",
      "top" : "input.105",
      "type" : "elementwise",
      "name" : "input.105",
      "beta" : 0
    },
    {
      "pad_r" : 1,
      "fused_relu" : 0,
      "fused_tanh" : 0,
      "debug_info" : "input.107",
      "pad_fill_mode" : 0,
      "pad_b" : 1,
      "pad_l" : 1,
      "top" : "input.107",
      "blob_weights" : 115,
      "K" : 256,
      "blob_biases" : 113,
      "name" : "input.107",
      "has_batch_norm" : 0,
      "type" : "convolution",
      "n_groups" : 1,
      "pad_t" : 1,
      "has_biases" : 1,
      "C" : 256,
      "bottom" : "input.105",
      "weights" : {

      },
      "Nx" : 3,
      "pad_mode" : 0,
      "pad_value" : 0,
      "Ny" : 3,
      "n_parallel" : 1
    },
    {
      "bottom" : "input.107",
      "weights" : {

      },
      "mode" : 3,
      "debug_info" : "390__silu_sigmoid__",
      "top" : "390__silu_sigmoid__",
      "type" : "activation",
      "name" : "390__silu_sigmoid__"
    },
    {
      "bottom" : "input.107,390__silu_sigmoid__",
      "alpha" : 1,
      "operation" : 1,
      "weights" : {

      },
      "fused_relu" : 0,
      "debug_info" : "390",
      "top" : "390",
      "type" : "elementwise",
      "name" : "390",
      "beta" : 0
    },
    {
      "bottom" : "input.101,390",
      "alpha" : 1,
      "operation" : 0,
      "weights" : {

      },
      "fused_relu" : 0,
      "debug_info" : "391",
      "top" : "391",
      "type" : "elementwise",
      "name" : "391",
      "beta" : 0
    },
    {
      "pad_r" : 0,
      "fused_relu" : 0,
      "fused_tanh" : 0,
      "debug_info" : "input.109",
      "pad_fill_mode" : 0,
      "pad_b" : 0,
      "pad_l" : 0,
      "top" : "input.109",
      "blob_weights" : 119,
      "K" : 512,
      "blob_biases" : 117,
      "name" : "input.109",
      "has_batch_norm" : 0,
      "type" : "convolution",
      "n_groups" : 1,
      "pad_t" : 0,
      "has_biases" : 1,
      "C" : 256,
      "bottom" : "input.97",
      "weights" : {

      },
      "Nx" : 1,
      "pad_mode" : 0,
      "pad_value" : 0,
      "Ny" : 1,
      "n_parallel" : 1
    },
    {
      "bottom" : "input.109",
      "weights" : {

      },
      "mode" : 3,
      "debug_info" : "400__silu_sigmoid__",
      "top" : "400__silu_sigmoid__",
      "type" : "activation",
      "name" : "400__silu_sigmoid__"
    },
    {
      "bottom" : "input.109,400__silu_sigmoid__",
      "alpha" : 1,
      "operation" : 1,
      "weights" : {

      },
      "fused_relu" : 0,
      "debug_info" : "400",
      "top" : "400",
      "type" : "elementwise",
      "name" : "400",
      "beta" : 0
    },
    {
      "weights" : {

      },
      "debug_info" : "input.111",
      "top" : "input.111",
      "type" : "concat",
      "name" : "input.111",
      "bottom" : "391,400"
    },
    {
      "pad_r" : 0,
      "fused_relu" : 0,
      "fused_tanh" : 0,
      "debug_info" : "input.113",
      "pad_fill_mode" : 0,
      "pad_b" : 0,
      "pad_l" : 0,
      "top" : "input.113",
      "blob_weights" : 123,
      "K" : 512,
      "blob_biases" : 121,
      "name" : "input.113",
      "has_batch_norm" : 0,
      "type" : "convolution",
      "n_groups" : 1,
      "pad_t" : 0,
      "has_biases" : 1,
      "C" : 512,
      "bottom" : "input.111",
      "weights" : {

      },
      "Nx" : 1,
      "pad_mode" : 0,
      "pad_value" : 0,
      "Ny" : 1,
      "n_parallel" : 1
    },
    {
      "bottom" : "input.113",
      "weights" : {

      },
      "mode" : 3,
      "debug_info" : "input.115__silu_sigmoid__",
      "top" : "input.115__silu_sigmoid__",
      "type" : "activation",
      "name" : "input.115__silu_sigmoid__"
    },
    {
      "bottom" : "input.113,input.115__silu_sigmoid__",
      "alpha" : 1,
      "operation" : 1,
      "weights" : {

      },
      "fused_relu" : 0,
      "debug_info" : "input.115",
      "top" : "input.115",
      "type" : "elementwise",
      "name" : "input.115",
      "beta" : 0
    },
    {
      "pad_r" : 0,
      "fused_relu" : 0,
      "fused_tanh" : 0,
      "debug_info" : "input.117",
      "pad_fill_mode" : 0,
      "pad_b" : 0,
      "pad_l" : 0,
      "top" : "input.117",
      "blob_weights" : 127,
      "K" : 512,
      "blob_biases" : 125,
      "name" : "input.117",
      "has_batch_norm" : 0,
      "type" : "convolution",
      "n_groups" : 1,
      "pad_t" : 0,
      "has_biases" : 1,
      "C" : 256,
      "bottom" : "input.115",
      "weights" : {

      },
      "Nx" : 1,
      "pad_mode" : 0,
      "pad_value" : 0,
      "Ny" : 1,
      "n_parallel" : 1
    },
    {
      "bottom" : "input.117",
      "weights" : {

      },
      "mode" : 3,
      "debug_info" : "input.119__silu_sigmoid__",
      "top" : "input.119__silu_sigmoid__",
      "type" : "activation",
      "name" : "input.119__silu_sigmoid__"
    },
    {
      "bottom" : "input.117,input.119__silu_sigmoid__",
      "alpha" : 1,
      "operation" : 1,
      "weights" : {

      },
      "fused_relu" : 0,
      "debug_info" : "input.119",
      "top" : "input.119",
      "type" : "elementwise",
      "name" : "input.119",
      "beta" : 0
    },
    {
      "pad_r" : 2,
      "debug_info" : "input.121",
      "pad_fill_mode" : 0,
      "pad_b" : 2,
      "pad_l" : 2,
      "size_x" : 5,
      "top" : "input.121",
      "top_shape_style" : 0,
      "stride_x" : 1,
      "avg_or_max" : 1,
      "average_count_exclude_padding" : 1,
      "type" : "pool",
      "name" : "input.121",
      "pad_t" : 2,
      "stride_y" : 1,
      "bottom" : "input.119",
      "weights" : {

      },
      "pad_mode" : 0,
      "size_y" : 5,
      "pad_value" : 0
    },
    {
      "pad_r" : 2,
      "debug_info" : "input.123",
      "pad_fill_mode" : 0,
      "pad_b" : 2,
      "pad_l" : 2,
      "size_x" : 5,
      "top" : "input.123",
      "top_shape_style" : 0,
      "stride_x" : 1,
      "avg_or_max" : 1,
      "average_count_exclude_padding" : 1,
      "type" : "pool",
      "name" : "input.123",
      "pad_t" : 2,
      "stride_y" : 1,
      "bottom" : "input.121",
      "weights" : {

      },
      "pad_mode" : 0,
      "size_y" : 5,
      "pad_value" : 0
    },
    {
      "pad_r" : 2,
      "debug_info" : "443",
      "pad_fill_mode" : 0,
      "pad_b" : 2,
      "pad_l" : 2,
      "size_x" : 5,
      "top" : "443",
      "top_shape_style" : 0,
      "stride_x" : 1,
      "avg_or_max" : 1,
      "average_count_exclude_padding" : 1,
      "type" : "pool",
      "name" : "443",
      "pad_t" : 2,
      "stride_y" : 1,
      "bottom" : "input.123",
      "weights" : {

      },
      "pad_mode" : 0,
      "size_y" : 5,
      "pad_value" : 0
    },
    {
      "weights" : {

      },
      "debug_info" : "input.125",
      "top" : "input.125",
      "type" : "concat",
      "name" : "input.125",
      "bottom" : "input.119,input.121,input.123,443"
    },
    {
      "pad_r" : 0,
      "fused_relu" : 0,
      "fused_tanh" : 0,
      "debug_info" : "input.127",
      "pad_fill_mode" : 0,
      "pad_b" : 0,
      "pad_l" : 0,
      "top" : "input.127",
      "blob_weights" : 131,
      "K" : 1024,
      "blob_biases" : 129,
      "name" : "input.127",
      "has_batch_norm" : 0,
      "type" : "convolution",
      "n_groups" : 1,
      "pad_t" : 0,
      "has_biases" : 1,
      "C" : 512,
      "bottom" : "input.125",
      "weights" : {

      },
      "Nx" : 1,
      "pad_mode" : 0,
      "pad_value" : 0,
      "Ny" : 1,
      "n_parallel" : 1
    },
    {
      "bottom" : "input.127",
      "weights" : {

      },
      "mode" : 3,
      "debug_info" : "input.129__silu_sigmoid__",
      "top" : "input.129__silu_sigmoid__",
      "type" : "activation",
      "name" : "input.129__silu_sigmoid__"
    },
    {
      "bottom" : "input.127,input.129__silu_sigmoid__",
      "alpha" : 1,
      "operation" : 1,
      "weights" : {

      },
      "fused_relu" : 0,
      "debug_info" : "input.129",
      "top" : "input.129",
      "type" : "elementwise",
      "name" : "input.129",
      "beta" : 0
    },
    {
      "pad_r" : 0,
      "fused_relu" : 0,
      "fused_tanh" : 0,
      "debug_info" : "input.131",
      "pad_fill_mode" : 0,
      "pad_b" : 0,
      "pad_l" : 0,
      "top" : "input.131",
      "blob_weights" : 135,
      "K" : 512,
      "blob_biases" : 133,
      "name" : "input.131",
      "has_batch_norm" : 0,
      "type" : "convolution",
      "n_groups" : 1,
      "pad_t" : 0,
      "has_biases" : 1,
      "C" : 256,
      "bottom" : "input.129",
      "weights" : {

      },
      "Nx" : 1,
      "pad_mode" : 0,
      "pad_value" : 0,
      "Ny" : 1,
      "n_parallel" : 1
    },
    {
      "bottom" : "input.131",
      "weights" : {

      },
      "mode" : 3,
      "debug_info" : "input.133__silu_sigmoid__",
      "top" : "input.133__silu_sigmoid__",
      "type" : "activation",
      "name" : "input.133__silu_sigmoid__"
    },
    {
      "bottom" : "input.131,input.133__silu_sigmoid__",
      "alpha" : 1,
      "operation" : 1,
      "weights" : {

      },
      "fused_relu" : 0,
      "debug_info" : "input.133",
      "top" : "input.133",
      "type" : "elementwise",
      "name" : "input.133",
      "beta" : 0
    },
    {
      "top" : "471",
      "use_fractional_scale_factors" : false,
      "weights" : {

      },
      "fractional_scaling_factor_y" : 1,
      "type" : "upsample",
      "scaling_factor_x" : 2,
      "mode" : 0,
      "align_corners" : 0,
      "bottom" : "input.133",
      "debug_info" : "471",
      "fractional_scaling_factor_x" : 1,
      "is_legacy_mode" : 1,
      "name" : "471",
      "scaling_factor_y" : 2
    },
    {
      "weights" : {

      },
      "debug_info" : "input.135",
      "top" : "input.135",
      "type" : "concat",
      "name" : "input.135",
      "bottom" : "471,input.93"
    },
    {
      "pad_r" : 0,
      "fused_relu" : 0,
      "fused_tanh" : 0,
      "debug_info" : "input.137",
      "pad_fill_mode" : 0,
      "pad_b" : 0,
      "pad_l" : 0,
      "top" : "input.137",
      "blob_weights" : 139,
      "K" : 512,
      "blob_biases" : 137,
      "name" : "input.137",
      "has_batch_norm" : 0,
      "type" : "convolution",
      "n_groups" : 1,
      "pad_t" : 0,
      "has_biases" : 1,
      "C" : 128,
      "bottom" : "input.135",
      "weights" : {

      },
      "Nx" : 1,
      "pad_mode" : 0,
      "pad_value" : 0,
      "Ny" : 1,
      "n_parallel" : 1
    },
    {
      "bottom" : "input.137",
      "weights" : {

      },
      "mode" : 3,
      "debug_info" : "input.139__silu_sigmoid__",
      "top" : "input.139__silu_sigmoid__",
      "type" : "activation",
      "name" : "input.139__silu_sigmoid__"
    },
    {
      "bottom" : "input.137,input.139__silu_sigmoid__",
      "alpha" : 1,
      "operation" : 1,
      "weights" : {

      },
      "fused_relu" : 0,
      "debug_info" : "input.139",
      "top" : "input.139",
      "type" : "elementwise",
      "name" : "input.139",
      "beta" : 0
    },
    {
      "pad_r" : 0,
      "fused_relu" : 0,
      "fused_tanh" : 0,
      "debug_info" : "input.141",
      "pad_fill_mode" : 0,
      "pad_b" : 0,
      "pad_l" : 0,
      "top" : "input.141",
      "blob_weights" : 143,
      "K" : 128,
      "blob_biases" : 141,
      "name" : "input.141",
      "has_batch_norm" : 0,
      "type" : "convolution",
      "n_groups" : 1,
      "pad_t" : 0,
      "has_biases" : 1,
      "C" : 128,
      "bottom" : "input.139",
      "weights" : {

      },
      "Nx" : 1,
      "pad_mode" : 0,
      "pad_value" : 0,
      "Ny" : 1,
      "n_parallel" : 1
    },
    {
      "bottom" : "input.141",
      "weights" : {

      },
      "mode" : 3,
      "debug_info" : "input.143__silu_sigmoid__",
      "top" : "input.143__silu_sigmoid__",
      "type" : "activation",
      "name" : "input.143__silu_sigmoid__"
    },
    {
      "bottom" : "input.141,input.143__silu_sigmoid__",
      "alpha" : 1,
      "operation" : 1,
      "weights" : {

      },
      "fused_relu" : 0,
      "debug_info" : "input.143",
      "top" : "input.143",
      "type" : "elementwise",
      "name" : "input.143",
      "beta" : 0
    },
    {
      "pad_r" : 1,
      "fused_relu" : 0,
      "fused_tanh" : 0,
      "debug_info" : "input.145",
      "pad_fill_mode" : 0,
      "pad_b" : 1,
      "pad_l" : 1,
      "top" : "input.145",
      "blob_weights" : 147,
      "K" : 128,
      "blob_biases" : 145,
      "name" : "input.145",
      "has_batch_norm" : 0,
      "type" : "convolution",
      "n_groups" : 1,
      "pad_t" : 1,
      "has_biases" : 1,
      "C" : 128,
      "bottom" : "input.143",
      "weights" : {

      },
      "Nx" : 3,
      "pad_mode" : 0,
      "pad_value" : 0,
      "Ny" : 3,
      "n_parallel" : 1
    },
    {
      "bottom" : "input.145",
      "weights" : {

      },
      "mode" : 3,
      "debug_info" : "512__silu_sigmoid__",
      "top" : "512__silu_sigmoid__",
      "type" : "activation",
      "name" : "512__silu_sigmoid__"
    },
    {
      "bottom" : "input.145,512__silu_sigmoid__",
      "alpha" : 1,
      "operation" : 1,
      "weights" : {

      },
      "fused_relu" : 0,
      "debug_info" : "512",
      "top" : "512",
      "type" : "elementwise",
      "name" : "512",
      "beta" : 0
    },
    {
      "pad_r" : 0,
      "fused_relu" : 0,
      "fused_tanh" : 0,
      "debug_info" : "input.147",
      "pad_fill_mode" : 0,
      "pad_b" : 0,
      "pad_l" : 0,
      "top" : "input.147",
      "blob_weights" : 151,
      "K" : 512,
      "blob_biases" : 149,
      "name" : "input.147",
      "has_batch_norm" : 0,
      "type" : "convolution",
      "n_groups" : 1,
      "pad_t" : 0,
      "has_biases" : 1,
      "C" : 128,
      "bottom" : "input.135",
      "weights" : {

      },
      "Nx" : 1,
      "pad_mode" : 0,
      "pad_value" : 0,
      "Ny" : 1,
      "n_parallel" : 1
    },
    {
      "bottom" : "input.147",
      "weights" : {

      },
      "mode" : 3,
      "debug_info" : "521__silu_sigmoid__",
      "top" : "521__silu_sigmoid__",
      "type" : "activation",
      "name" : "521__silu_sigmoid__"
    },
    {
      "bottom" : "input.147,521__silu_sigmoid__",
      "alpha" : 1,
      "operation" : 1,
      "weights" : {

      },
      "fused_relu" : 0,
      "debug_info" : "521",
      "top" : "521",
      "type" : "elementwise",
      "name" : "521",
      "beta" : 0
    },
    {
      "weights" : {

      },
      "debug_info" : "input.149",
      "top" : "input.149",
      "type" : "concat",
      "name" : "input.149",
      "bottom" : "512,521"
    },
    {
      "pad_r" : 0,
      "fused_relu" : 0,
      "fused_tanh" : 0,
      "debug_info" : "input.151",
      "pad_fill_mode" : 0,
      "pad_b" : 0,
      "pad_l" : 0,
      "top" : "input.151",
      "blob_weights" : 155,
      "K" : 256,
      "blob_biases" : 153,
      "name" : "input.151",
      "has_batch_norm" : 0,
      "type" : "convolution",
      "n_groups" : 1,
      "pad_t" : 0,
      "has_biases" : 1,
      "C" : 256,
      "bottom" : "input.149",
      "weights" : {

      },
      "Nx" : 1,
      "pad_mode" : 0,
      "pad_value" : 0,
      "Ny" : 1,
      "n_parallel" : 1
    },
    {
      "bottom" : "input.151",
      "weights" : {

      },
      "mode" : 3,
      "debug_info" : "input.153__silu_sigmoid__",
      "top" : "input.153__silu_sigmoid__",
      "type" : "activation",
      "name" : "input.153__silu_sigmoid__"
    },
    {
      "bottom" : "input.151,input.153__silu_sigmoid__",
      "alpha" : 1,
      "operation" : 1,
      "weights" : {

      },
      "fused_relu" : 0,
      "debug_info" : "input.153",
      "top" : "input.153",
      "type" : "elementwise",
      "name" : "input.153",
      "beta" : 0
    },
    {
      "pad_r" : 0,
      "fused_relu" : 0,
      "fused_tanh" : 0,
      "debug_info" : "input.155",
      "pad_fill_mode" : 0,
      "pad_b" : 0,
      "pad_l" : 0,
      "top" : "input.155",
      "blob_weights" : 159,
      "K" : 256,
      "blob_biases" : 157,
      "name" : "input.155",
      "has_batch_norm" : 0,
      "type" : "convolution",
      "n_groups" : 1,
      "pad_t" : 0,
      "has_biases" : 1,
      "C" : 128,
      "bottom" : "input.153",
      "weights" : {

      },
      "Nx" : 1,
      "pad_mode" : 0,
      "pad_value" : 0,
      "Ny" : 1,
      "n_parallel" : 1
    },
    {
      "bottom" : "input.155",
      "weights" : {

      },
      "mode" : 3,
      "debug_info" : "input.157__silu_sigmoid__",
      "top" : "input.157__silu_sigmoid__",
      "type" : "activation",
      "name" : "input.157__silu_sigmoid__"
    },
    {
      "bottom" : "input.155,input.157__silu_sigmoid__",
      "alpha" : 1,
      "operation" : 1,
      "weights" : {

      },
      "fused_relu" : 0,
      "debug_info" : "input.157",
      "top" : "input.157",
      "type" : "elementwise",
      "name" : "input.157",
      "beta" : 0
    },
    {
      "top" : "549",
      "use_fractional_scale_factors" : false,
      "weights" : {

      },
      "fractional_scaling_factor_y" : 1,
      "type" : "upsample",
      "scaling_factor_x" : 2,
      "mode" : 0,
      "align_corners" : 0,
      "bottom" : "input.157",
      "debug_info" : "549",
      "fractional_scaling_factor_x" : 1,
      "is_legacy_mode" : 1,
      "name" : "549",
      "scaling_factor_y" : 2
    },
    {
      "weights" : {

      },
      "debug_info" : "input.159",
      "top" : "input.159",
      "type" : "concat",
      "name" : "input.159",
      "bottom" : "549,input.55"
    },
    {
      "pad_r" : 0,
      "fused_relu" : 0,
      "fused_tanh" : 0,
      "debug_info" : "input.161",
      "pad_fill_mode" : 0,
      "pad_b" : 0,
      "pad_l" : 0,
      "top" : "input.161",
      "blob_weights" : 163,
      "K" : 256,
      "blob_biases" : 161,
      "name" : "input.161",
      "has_batch_norm" : 0,
      "type" : "convolution",
      "n_groups" : 1,
      "pad_t" : 0,
      "has_biases" : 1,
      "C" : 64,
      "bottom" : "input.159",
      "weights" : {

      },
      "Nx" : 1,
      "pad_mode" : 0,
      "pad_value" : 0,
      "Ny" : 1,
      "n_parallel" : 1
    },
    {
      "bottom" : "input.161",
      "weights" : {

      },
      "mode" : 3,
      "debug_info" : "input.163__silu_sigmoid__",
      "top" : "input.163__silu_sigmoid__",
      "type" : "activation",
      "name" : "input.163__silu_sigmoid__"
    },
    {
      "bottom" : "input.161,input.163__silu_sigmoid__",
      "alpha" : 1,
      "operation" : 1,
      "weights" : {

      },
      "fused_relu" : 0,
      "debug_info" : "input.163",
      "top" : "input.163",
      "type" : "elementwise",
      "name" : "input.163",
      "beta" : 0
    },
    {
      "pad_r" : 0,
      "fused_relu" : 0,
      "fused_tanh" : 0,
      "debug_info" : "input.165",
      "pad_fill_mode" : 0,
      "pad_b" : 0,
      "pad_l" : 0,
      "top" : "input.165",
      "blob_weights" : 167,
      "K" : 64,
      "blob_biases" : 165,
      "name" : "input.165",
      "has_batch_norm" : 0,
      "type" : "convolution",
      "n_groups" : 1,
      "pad_t" : 0,
      "has_biases" : 1,
      "C" : 64,
      "bottom" : "input.163",
      "weights" : {

      },
      "Nx" : 1,
      "pad_mode" : 0,
      "pad_value" : 0,
      "Ny" : 1,
      "n_parallel" : 1
    },
    {
      "bottom" : "input.165",
      "weights" : {

      },
      "mode" : 3,
      "debug_info" : "input.167__silu_sigmoid__",
      "top" : "input.167__silu_sigmoid__",
      "type" : "activation",
      "name" : "input.167__silu_sigmoid__"
    },
    {
      "bottom" : "input.165,input.167__silu_sigmoid__",
      "alpha" : 1,
      "operation" : 1,
      "weights" : {

      },
      "fused_relu" : 0,
      "debug_info" : "input.167",
      "top" : "input.167",
      "type" : "elementwise",
      "name" : "input.167",
      "beta" : 0
    },
    {
      "pad_r" : 1,
      "fused_relu" : 0,
      "fused_tanh" : 0,
      "debug_info" : "input.169",
      "pad_fill_mode" : 0,
      "pad_b" : 1,
      "pad_l" : 1,
      "top" : "input.169",
      "blob_weights" : 171,
      "K" : 64,
      "blob_biases" : 169,
      "name" : "input.169",
      "has_batch_norm" : 0,
      "type" : "convolution",
      "n_groups" : 1,
      "pad_t" : 1,
      "has_biases" : 1,
      "C" : 64,
      "bottom" : "input.167",
      "weights" : {

      },
      "Nx" : 3,
      "pad_mode" : 0,
      "pad_value" : 0,
      "Ny" : 3,
      "n_parallel" : 1
    },
    {
      "bottom" : "input.169",
      "weights" : {

      },
      "mode" : 3,
      "debug_info" : "590__silu_sigmoid__",
      "top" : "590__silu_sigmoid__",
      "type" : "activation",
      "name" : "590__silu_sigmoid__"
    },
    {
      "bottom" : "input.169,590__silu_sigmoid__",
      "alpha" : 1,
      "operation" : 1,
      "weights" : {

      },
      "fused_relu" : 0,
      "debug_info" : "590",
      "top" : "590",
      "type" : "elementwise",
      "name" : "590",
      "beta" : 0
    },
    {
      "pad_r" : 0,
      "fused_relu" : 0,
      "fused_tanh" : 0,
      "debug_info" : "input.171",
      "pad_fill_mode" : 0,
      "pad_b" : 0,
      "pad_l" : 0,
      "top" : "input.171",
      "blob_weights" : 175,
      "K" : 256,
      "blob_biases" : 173,
      "name" : "input.171",
      "has_batch_norm" : 0,
      "type" : "convolution",
      "n_groups" : 1,
      "pad_t" : 0,
      "has_biases" : 1,
      "C" : 64,
      "bottom" : "input.159",
      "weights" : {

      },
      "Nx" : 1,
      "pad_mode" : 0,
      "pad_value" : 0,
      "Ny" : 1,
      "n_parallel" : 1
    },
    {
      "bottom" : "input.171",
      "weights" : {

      },
      "mode" : 3,
      "debug_info" : "599__silu_sigmoid__",
      "top" : "599__silu_sigmoid__",
      "type" : "activation",
      "name" : "599__silu_sigmoid__"
    },
    {
      "bottom" : "input.171,599__silu_sigmoid__",
      "alpha" : 1,
      "operation" : 1,
      "weights" : {

      },
      "fused_relu" : 0,
      "debug_info" : "599",
      "top" : "599",
      "type" : "elementwise",
      "name" : "599",
      "beta" : 0
    },
    {
      "weights" : {

      },
      "debug_info" : "input.173",
      "top" : "input.173",
      "type" : "concat",
      "name" : "input.173",
      "bottom" : "590,599"
    },
    {
      "pad_r" : 0,
      "fused_relu" : 0,
      "fused_tanh" : 0,
      "debug_info" : "input.175",
      "pad_fill_mode" : 0,
      "pad_b" : 0,
      "pad_l" : 0,
      "top" : "input.175",
      "blob_weights" : 179,
      "K" : 128,
      "blob_biases" : 177,
      "name" : "input.175",
      "has_batch_norm" : 0,
      "type" : "convolution",
      "n_groups" : 1,
      "pad_t" : 0,
      "has_biases" : 1,
      "C" : 128,
      "bottom" : "input.173",
      "weights" : {

      },
      "Nx" : 1,
      "pad_mode" : 0,
      "pad_value" : 0,
      "Ny" : 1,
      "n_parallel" : 1
    },
    {
      "bottom" : "input.175",
      "weights" : {

      },
      "mode" : 3,
      "debug_info" : "input.177__silu_sigmoid__",
      "top" : "input.177__silu_sigmoid__",
      "type" : "activation",
      "name" : "input.177__silu_sigmoid__"
    },
    {
      "bottom" : "input.175,input.177__silu_sigmoid__",
      "alpha" : 1,
      "operation" : 1,
      "weights" : {

      },
      "fused_relu" : 0,
      "debug_info" : "input.177",
      "top" : "input.177",
      "type" : "elementwise",
      "name" : "input.177",
      "beta" : 0
    },
    {
      "pad_r" : 1,
      "fused_relu" : 0,
      "fused_tanh" : 0,
      "debug_info" : "input.179",
      "pad_fill_mode" : 0,
      "pad_b" : 1,
      "pad_l" : 1,
      "top" : "input.179",
      "blob_weights" : 183,
      "K" : 128,
      "blob_biases" : 181,
      "stride_x" : 2,
      "name" : "input.179",
      "has_batch_norm" : 0,
      "type" : "convolution",
      "n_groups" : 1,
      "pad_t" : 1,
      "stride_y" : 2,
      "has_biases" : 1,
      "C" : 128,
      "bottom" : "input.177",
      "weights" : {

      },
      "Nx" : 3,
      "pad_mode" : 0,
      "pad_value" : 0,
      "Ny" : 3,
      "n_parallel" : 1
    },
    {
      "bottom" : "input.179",
      "weights" : {

      },
      "mode" : 3,
      "debug_info" : "624__silu_sigmoid__",
      "top" : "624__silu_sigmoid__",
      "type" : "activation",
      "name" : "624__silu_sigmoid__"
    },
    {
      "bottom" : "input.179,624__silu_sigmoid__",
      "alpha" : 1,
      "operation" : 1,
      "weights" : {

      },
      "fused_relu" : 0,
      "debug_info" : "624",
      "top" : "624",
      "type" : "elementwise",
      "name" : "624",
      "beta" : 0
    },
    {
      "weights" : {

      },
      "debug_info" : "input.181",
      "top" : "input.181",
      "type" : "concat",
      "name" : "input.181",
      "bottom" : "624,input.157"
    },
    {
      "pad_r" : 0,
      "fused_relu" : 0,
      "fused_tanh" : 0,
      "debug_info" : "input.183",
      "pad_fill_mode" : 0,
      "pad_b" : 0,
      "pad_l" : 0,
      "top" : "input.183",
      "blob_weights" : 187,
      "K" : 256,
      "blob_biases" : 185,
      "name" : "input.183",
      "has_batch_norm" : 0,
      "type" : "convolution",
      "n_groups" : 1,
      "pad_t" : 0,
      "has_biases" : 1,
      "C" : 128,
      "bottom" : "input.181",
      "weights" : {

      },
      "Nx" : 1,
      "pad_mode" : 0,
      "pad_value" : 0,
      "Ny" : 1,
      "n_parallel" : 1
    },
    {
      "bottom" : "input.183",
      "weights" : {

      },
      "mode" : 3,
      "debug_info" : "input.185__silu_sigmoid__",
      "top" : "input.185__silu_sigmoid__",
      "type" : "activation",
      "name" : "input.185__silu_sigmoid__"
    },
    {
      "bottom" : "input.183,input.185__silu_sigmoid__",
      "alpha" : 1,
      "operation" : 1,
      "weights" : {

      },
      "fused_relu" : 0,
      "debug_info" : "input.185",
      "top" : "input.185",
      "type" : "elementwise",
      "name" : "input.185",
      "beta" : 0
    },
    {
      "pad_r" : 0,
      "fused_relu" : 0,
      "fused_tanh" : 0,
      "debug_info" : "input.187",
      "pad_fill_mode" : 0,
      "pad_b" : 0,
      "pad_l" : 0,
      "top" : "input.187",
      "blob_weights" : 191,
      "K" : 128,
      "blob_biases" : 189,
      "name" : "input.187",
      "has_batch_norm" : 0,
      "type" : "convolution",
      "n_groups" : 1,
      "pad_t" : 0,
      "has_biases" : 1,
      "C" : 128,
      "bottom" : "input.185",
      "weights" : {

      },
      "Nx" : 1,
      "pad_mode" : 0,
      "pad_value" : 0,
      "Ny" : 1,
      "n_parallel" : 1
    },
    {
      "bottom" : "input.187",
      "weights" : {

      },
      "mode" : 3,
      "debug_info" : "input.189__silu_sigmoid__",
      "top" : "input.189__silu_sigmoid__",
      "type" : "activation",
      "name" : "input.189__silu_sigmoid__"
    },
    {
      "bottom" : "input.187,input.189__silu_sigmoid__",
      "alpha" : 1,
      "operation" : 1,
      "weights" : {

      },
      "fused_relu" : 0,
      "debug_info" : "input.189",
      "top" : "input.189",
      "type" : "elementwise",
      "name" : "input.189",
      "beta" : 0
    },
    {
      "pad_r" : 1,
      "fused_relu" : 0,
      "fused_tanh" : 0,
      "debug_info" : "input.191",
      "pad_fill_mode" : 0,
      "pad_b" : 1,
      "pad_l" : 1,
      "top" : "input.191",
      "blob_weights" : 195,
      "K" : 128,
      "blob_biases" : 193,
      "name" : "input.191",
      "has_batch_norm" : 0,
      "type" : "convolution",
      "n_groups" : 1,
      "pad_t" : 1,
      "has_biases" : 1,
      "C" : 128,
      "bottom" : "input.189",
      "weights" : {

      },
      "Nx" : 3,
      "pad_mode" : 0,
      "pad_value" : 0,
      "Ny" : 3,
      "n_parallel" : 1
    },
    {
      "bottom" : "input.191",
      "weights" : {

      },
      "mode" : 3,
      "debug_info" : "665__silu_sigmoid__",
      "top" : "665__silu_sigmoid__",
      "type" : "activation",
      "name" : "665__silu_sigmoid__"
    },
    {
      "bottom" : "input.191,665__silu_sigmoid__",
      "alpha" : 1,
      "operation" : 1,
      "weights" : {

      },
      "fused_relu" : 0,
      "debug_info" : "665",
      "top" : "665",
      "type" : "elementwise",
      "name" : "665",
      "beta" : 0
    },
    {
      "pad_r" : 0,
      "fused_relu" : 0,
      "fused_tanh" : 0,
      "debug_info" : "input.193",
      "pad_fill_mode" : 0,
      "pad_b" : 0,
      "pad_l" : 0,
      "top" : "input.193",
      "blob_weights" : 199,
      "K" : 256,
      "blob_biases" : 197,
      "name" : "input.193",
      "has_batch_norm" : 0,
      "type" : "convolution",
      "n_groups" : 1,
      "pad_t" : 0,
      "has_biases" : 1,
      "C" : 128,
      "bottom" : "input.181",
      "weights" : {

      },
      "Nx" : 1,
      "pad_mode" : 0,
      "pad_value" : 0,
      "Ny" : 1,
      "n_parallel" : 1
    },
    {
      "bottom" : "input.193",
      "weights" : {

      },
      "mode" : 3,
      "debug_info" : "674__silu_sigmoid__",
      "top" : "674__silu_sigmoid__",
      "type" : "activation",
      "name" : "674__silu_sigmoid__"
    },
    {
      "bottom" : "input.193,674__silu_sigmoid__",
      "alpha" : 1,
      "operation" : 1,
      "weights" : {

      },
      "fused_relu" : 0,
      "debug_info" : "674",
      "top" : "674",
      "type" : "elementwise",
      "name" : "674",
      "beta" : 0
    },
    {
      "weights" : {

      },
      "debug_info" : "input.195",
      "top" : "input.195",
      "type" : "concat",
      "name" : "input.195",
      "bottom" : "665,674"
    },
    {
      "pad_r" : 0,
      "fused_relu" : 0,
      "fused_tanh" : 0,
      "debug_info" : "input.197",
      "pad_fill_mode" : 0,
      "pad_b" : 0,
      "pad_l" : 0,
      "top" : "input.197",
      "blob_weights" : 203,
      "K" : 256,
      "blob_biases" : 201,
      "name" : "input.197",
      "has_batch_norm" : 0,
      "type" : "convolution",
      "n_groups" : 1,
      "pad_t" : 0,
      "has_biases" : 1,
      "C" : 256,
      "bottom" : "input.195",
      "weights" : {

      },
      "Nx" : 1,
      "pad_mode" : 0,
      "pad_value" : 0,
      "Ny" : 1,
      "n_parallel" : 1
    },
    {
      "bottom" : "input.197",
      "weights" : {

      },
      "mode" : 3,
      "debug_info" : "input.199__silu_sigmoid__",
      "top" : "input.199__silu_sigmoid__",
      "type" : "activation",
      "name" : "input.199__silu_sigmoid__"
    },
    {
      "bottom" : "input.197,input.199__silu_sigmoid__",
      "alpha" : 1,
      "operation" : 1,
      "weights" : {

      },
      "fused_relu" : 0,
      "debug_info" : "input.199",
      "top" : "input.199",
      "type" : "elementwise",
      "name" : "input.199",
      "beta" : 0
    },
    {
      "pad_r" : 1,
      "fused_relu" : 0,
      "fused_tanh" : 0,
      "debug_info" : "input.201",
      "pad_fill_mode" : 0,
      "pad_b" : 1,
      "pad_l" : 1,
      "top" : "input.201",
      "blob_weights" : 207,
      "K" : 256,
      "blob_biases" : 205,
      "stride_x" : 2,
      "name" : "input.201",
      "has_batch_norm" : 0,
      "type" : "convolution",
      "n_groups" : 1,
      "pad_t" : 1,
      "stride_y" : 2,
      "has_biases" : 1,
      "C" : 256,
      "bottom" : "input.199",
      "weights" : {

      },
      "Nx" : 3,
      "pad_mode" : 0,
      "pad_value" : 0,
      "Ny" : 3,
      "n_parallel" : 1
    },
    {
      "bottom" : "input.201",
      "weights" : {

      },
      "mode" : 3,
      "debug_info" : "699__silu_sigmoid__",
      "top" : "699__silu_sigmoid__",
      "type" : "activation",
      "name" : "699__silu_sigmoid__"
    },
    {
      "bottom" : "input.201,699__silu_sigmoid__",
      "alpha" : 1,
      "operation" : 1,
      "weights" : {

      },
      "fused_relu" : 0,
      "debug_info" : "699",
      "top" : "699",
      "type" : "elementwise",
      "name" : "699",
      "beta" : 0
    },
    {
      "weights" : {

      },
      "debug_info" : "input.203",
      "top" : "input.203",
      "type" : "concat",
      "name" : "input.203",
      "bottom" : "699,input.133"
    },
    {
      "pad_r" : 0,
      "fused_relu" : 0,
      "fused_tanh" : 0,
      "debug_info" : "input.205",
      "pad_fill_mode" : 0,
      "pad_b" : 0,
      "pad_l" : 0,
      "top" : "input.205",
      "blob_weights" : 211,
      "K" : 512,
      "blob_biases" : 209,
      "name" : "input.205",
      "has_batch_norm" : 0,
      "type" : "convolution",
      "n_groups" : 1,
      "pad_t" : 0,
      "has_biases" : 1,
      "C" : 256,
      "bottom" : "input.203",
      "weights" : {

      },
      "Nx" : 1,
      "pad_mode" : 0,
      "pad_value" : 0,
      "Ny" : 1,
      "n_parallel" : 1
    },
    {
      "bottom" : "input.205",
      "weights" : {

      },
      "mode" : 3,
      "debug_info" : "input.207__silu_sigmoid__",
      "top" : "input.207__silu_sigmoid__",
      "type" : "activation",
      "name" : "input.207__silu_sigmoid__"
    },
    {
      "bottom" : "input.205,input.207__silu_sigmoid__",
      "alpha" : 1,
      "operation" : 1,
      "weights" : {

      },
      "fused_relu" : 0,
      "debug_info" : "input.207",
      "top" : "input.207",
      "type" : "elementwise",
      "name" : "input.207",
      "beta" : 0
    },
    {
      "pad_r" : 0,
      "fused_relu" : 0,
      "fused_tanh" : 0,
      "debug_info" : "input.209",
      "pad_fill_mode" : 0,
      "pad_b" : 0,
      "pad_l" : 0,
      "top" : "input.209",
      "blob_weights" : 215,
      "K" : 256,
      "blob_biases" : 213,
      "name" : "input.209",
      "has_batch_norm" : 0,
      "type" : "convolution",
      "n_groups" : 1,
      "pad_t" : 0,
      "has_biases" : 1,
      "C" : 256,
      "bottom" : "input.207",
      "weights" : {

      },
      "Nx" : 1,
      "pad_mode" : 0,
      "pad_value" : 0,
      "Ny" : 1,
      "n_parallel" : 1
    },
    {
      "bottom" : "input.209",
      "weights" : {

      },
      "mode" : 3,
      "debug_info" : "input.211__silu_sigmoid__",
      "top" : "input.211__silu_sigmoid__",
      "type" : "activation",
      "name" : "input.211__silu_sigmoid__"
    },
    {
      "bottom" : "input.209,input.211__silu_sigmoid__",
      "alpha" : 1,
      "operation" : 1,
      "weights" : {

      },
      "fused_relu" : 0,
      "debug_info" : "input.211",
      "top" : "input.211",
      "type" : "elementwise",
      "name" : "input.211",
      "beta" : 0
    },
    {
      "pad_r" : 1,
      "fused_relu" : 0,
      "fused_tanh" : 0,
      "debug_info" : "input.213",
      "pad_fill_mode" : 0,
      "pad_b" : 1,
      "pad_l" : 1,
      "top" : "input.213",
      "blob_weights" : 219,
      "K" : 256,
      "blob_biases" : 217,
      "name" : "input.213",
      "has_batch_norm" : 0,
      "type" : "convolution",
      "n_groups" : 1,
      "pad_t" : 1,
      "has_biases" : 1,
      "C" : 256,
      "bottom" : "input.211",
      "weights" : {

      },
      "Nx" : 3,
      "pad_mode" : 0,
      "pad_value" : 0,
      "Ny" : 3,
      "n_parallel" : 1
    },
    {
      "bottom" : "input.213",
      "weights" : {

      },
      "mode" : 3,
      "debug_info" : "740__silu_sigmoid__",
      "top" : "740__silu_sigmoid__",
      "type" : "activation",
      "name" : "740__silu_sigmoid__"
    },
    {
      "bottom" : "input.213,740__silu_sigmoid__",
      "alpha" : 1,
      "operation" : 1,
      "weights" : {

      },
      "fused_relu" : 0,
      "debug_info" : "740",
      "top" : "740",
      "type" : "elementwise",
      "name" : "740",
      "beta" : 0
    },
    {
      "pad_r" : 0,
      "fused_relu" : 0,
      "fused_tanh" : 0,
      "debug_info" : "input.215",
      "pad_fill_mode" : 0,
      "pad_b" : 0,
      "pad_l" : 0,
      "top" : "input.215",
      "blob_weights" : 223,
      "K" : 512,
      "blob_biases" : 221,
      "name" : "input.215",
      "has_batch_norm" : 0,
      "type" : "convolution",
      "n_groups" : 1,
      "pad_t" : 0,
      "has_biases" : 1,
      "C" : 256,
      "bottom" : "input.203",
      "weights" : {

      },
      "Nx" : 1,
      "pad_mode" : 0,
      "pad_value" : 0,
      "Ny" : 1,
      "n_parallel" : 1
    },
    {
      "bottom" : "input.215",
      "weights" : {

      },
      "mode" : 3,
      "debug_info" : "749__silu_sigmoid__",
      "top" : "749__silu_sigmoid__",
      "type" : "activation",
      "name" : "749__silu_sigmoid__"
    },
    {
      "bottom" : "input.215,749__silu_sigmoid__",
      "alpha" : 1,
      "operation" : 1,
      "weights" : {

      },
      "fused_relu" : 0,
      "debug_info" : "749",
      "top" : "749",
      "type" : "elementwise",
      "name" : "749",
      "beta" : 0
    },
    {
      "weights" : {

      },
      "debug_info" : "input.217",
      "top" : "input.217",
      "type" : "concat",
      "name" : "input.217",
      "bottom" : "740,749"
    },
    {
      "pad_r" : 0,
      "fused_relu" : 0,
      "fused_tanh" : 0,
      "debug_info" : "input.219",
      "pad_fill_mode" : 0,
      "pad_b" : 0,
      "pad_l" : 0,
      "top" : "input.219",
      "blob_weights" : 227,
      "K" : 512,
      "blob_biases" : 225,
      "name" : "input.219",
      "has_batch_norm" : 0,
      "type" : "convolution",
      "n_groups" : 1,
      "pad_t" : 0,
      "has_biases" : 1,
      "C" : 512,
      "bottom" : "input.217",
      "weights" : {

      },
      "Nx" : 1,
      "pad_mode" : 0,
      "pad_value" : 0,
      "Ny" : 1,
      "n_parallel" : 1
    },
    {
      "bottom" : "input.219",
      "weights" : {

      },
      "mode" : 3,
      "debug_info" : "input__silu_sigmoid__",
      "top" : "input__silu_sigmoid__",
      "type" : "activation",
      "name" : "input__silu_sigmoid__"
    },
    {
      "bottom" : "input.219,input__silu_sigmoid__",
      "alpha" : 1,
      "operation" : 1,
      "weights" : {

      },
      "fused_relu" : 0,
      "debug_info" : "input",
      "top" : "input",
      "type" : "elementwise",
      "name" : "input",
      "beta" : 0
    },
    {
      "pad_r" : 0,
      "fused_relu" : 0,
      "fused_tanh" : 0,
      "debug_info" : "781",
      "pad_fill_mode" : 0,
      "pad_b" : 0,
      "pad_l" : 0,
      "top" : "781",
      "blob_weights" : 231,
      "K" : 128,
      "blob_biases" : 229,
      "name" : "781",
      "has_batch_norm" : 0,
      "type" : "convolution",
      "n_groups" : 1,
      "pad_t" : 0,
      "has_biases" : 1,
      "C" : 18,
      "bottom" : "input.177",
      "weights" : {

      },
      "Nx" : 1,
      "pad_mode" : 0,
      "pad_value" : 0,
      "Ny" : 1,
      "n_parallel" : 1
    },
    {
      "name" : "786",
      "weights" : {

      },
      "dst_w" : 80,
      "version" : 1,
      "dst_n" : 3,
      "dst_nd_rank" : 5,
      "type" : "reshape",
      "dst_h" : 80,
      "mode" : 0,
      "dynamic_shape" : false,
      "bottom" : "781",
      "debug_info" : "786",
      "dst_seq" : 1,
      "dst_k" : 6,
      "top" : "786"
    },
    {
      "pad_r" : 0,
      "fused_relu" : 0,
      "fused_tanh" : 0,
      "debug_info" : "796",
      "pad_fill_mode" : 0,
      "pad_b" : 0,
      "pad_l" : 0,
      "top" : "796",
      "blob_weights" : 235,
      "K" : 256,
      "blob_biases" : 233,
      "name" : "796",
      "has_batch_norm" : 0,
      "type" : "convolution",
      "n_groups" : 1,
      "pad_t" : 0,
      "has_biases" : 1,
      "C" : 18,
      "bottom" : "input.199",
      "weights" : {

      },
      "Nx" : 1,
      "pad_mode" : 0,
      "pad_value" : 0,
      "Ny" : 1,
      "n_parallel" : 1
    },
    {
      "name" : "801",
      "weights" : {

      },
      "dst_w" : 40,
      "version" : 1,
      "dst_n" : 3,
      "dst_nd_rank" : 5,
      "type" : "reshape",
      "dst_h" : 40,
      "mode" : 0,
      "dynamic_shape" : false,
      "bottom" : "796",
      "debug_info" : "801",
      "dst_seq" : 1,
      "dst_k" : 6,
      "top" : "801"
    },
    {
      "pad_r" : 0,
      "fused_relu" : 0,
      "fused_tanh" : 0,
      "debug_info" : "811",
      "pad_fill_mode" : 0,
      "pad_b" : 0,
      "pad_l" : 0,
      "top" : "811",
      "blob_weights" : 239,
      "K" : 512,
      "blob_biases" : 237,
      "name" : "811",
      "has_batch_norm" : 0,
      "type" : "convolution",
      "n_groups" : 1,
      "pad_t" : 0,
      "has_biases" : 1,
      "C" : 18,
      "bottom" : "input",
      "weights" : {

      },
      "Nx" : 1,
      "pad_mode" : 0,
      "pad_value" : 0,
      "Ny" : 1,
      "n_parallel" : 1
    },
    {
      "name" : "816",
      "weights" : {

      },
      "dst_w" : 20,
      "version" : 1,
      "dst_n" : 3,
      "dst_nd_rank" : 5,
      "type" : "reshape",
      "dst_h" : 20,
      "mode" : 0,
      "dynamic_shape" : false,
      "bottom" : "811",
      "debug_info" : "816",
      "dst_seq" : 1,
      "dst_k" : 6,
      "top" : "816"
    },
    {
      "axis_seq" : 4,
      "name" : "transpose_0",
      "axis_n" : 3,
      "axis_h" : 0,
      "type" : "transpose",
      "attributes" : {
        "is_output" : 1
      },
      "bottom" : "816",
      "axis_w" : 2,
      "axis_k" : 1,
      "debug_info" : "transpose_0",
      "weights" : {

      },
      "top" : "var_818"
    },
    {
      "axis_h" : 0,
      "axis_w" : 2,
      "bottom" : "801",
      "axis_k" : 1,
      "axis_n" : 3,
      "axis_seq" : 4,
      "weights" : {

      },
      "debug_info" : "transpose_1",
      "top" : "var_803",
      "type" : "transpose",
      "name" : "transpose_1"
    },
    {
      "axis_h" : 0,
      "axis_w" : 2,
      "bottom" : "786",
      "axis_k" : 1,
      "axis_n" : 3,
      "axis_seq" : 4,
      "weights" : {

      },
      "debug_info" : "transpose_2",
      "top" : "var_788",
      "type" : "transpose",
      "name" : "transpose_2"
    },
    {
      "bottom" : "var_788",
      "weights" : {

      },
      "mode" : 3,
      "debug_info" : "sigmoid_var_788",
      "top" : "var_788_sigmoid",
      "type" : "activation",
      "name" : "sigmoid_var_788"
    },
    {
      "bottom" : "var_788_sigmoid",
      "end" : 2,
      "start" : 0,
      "weights" : {

      },
      "axis" : 0,
      "debug_info" : "slice_coordinates_xy_var_788",
      "top" : "var_788_sliced_coordinates_xy",
      "type" : "slice",
      "name" : "slice_coordinates_xy_var_788"
    },
    {
      "bottom" : "var_788_sliced_coordinates_xy",
      "alpha" : 2,
      "operation" : 1,
      "weights" : {

      },
      "fused_relu" : 0,
      "debug_info" : "multiply_xy_by_two_var_788",
      "top" : "var_788_multiplied_xy_by_two",
      "type" : "elementwise",
      "name" : "multiply_xy_by_two_var_788",
      "beta" : 0
    },
    {
      "bottom" : "var_788_multiplied_xy_by_two",
      "alpha" : -0.5,
      "operation" : 0,
      "weights" : {

      },
      "fused_relu" : 0,
      "debug_info" : "subtract_0_5_from_xy_var_788",
      "top" : "var_788_subtracted_0_5_from_xy",
      "type" : "elementwise",
      "name" : "subtract_0_5_from_xy_var_788",
      "beta" : 0
    },
    {
      "bottom" : "",
      "k" : 80,
      "n" : 1,
      "weights" : {

      },
      "h" : 80,
      "debug_info" : "add_grid_from_xy_var_788",
      "constant_blob" : 241,
      "top" : "add_grid_from_xy_var_788_constant_in",
      "w" : 2,
      "type" : "load_constant",
      "name" : "add_grid_from_xy_var_788_constant_in"
    },
    {
      "bottom" : "var_788_subtracted_0_5_from_xy,add_grid_from_xy_var_788_constant_in",
      "alpha" : 1,
      "operation" : 0,
      "weights" : {

      },
      "fused_relu" : 0,
      "debug_info" : "add_grid_from_xy_var_788",
      "top" : "var_788_added_grid_xy",
      "type" : "elementwise",
      "name" : "add_grid_from_xy_var_788",
      "beta" : 0
    },
    {
      "bottom" : "var_788_added_grid_xy",
      "alpha" : 8,
      "operation" : 1,
      "weights" : {

      },
      "fused_relu" : 0,
      "debug_info" : "multiply_xy_by_stride_var_788",
      "top" : "var_788_calculated_xy",
      "type" : "elementwise",
      "name" : "multiply_xy_by_stride_var_788",
      "beta" : 0
    },
    {
      "bottom" : "var_788_sigmoid",
      "end" : 4,
      "start" : 2,
      "weights" : {

      },
      "axis" : 0,
      "debug_info" : "slice_coordinates_wh_var_788",
      "top" : "var_788_sliced_coordinates_wh",
      "type" : "slice",
      "name" : "slice_coordinates_wh_var_788"
    },
    {
      "bottom" : "var_788_sliced_coordinates_wh",
      "alpha" : 2,
      "operation" : 1,
      "weights" : {

      },
      "fused_relu" : 0,
      "debug_info" : "multiply_wh_by_two_var_788",
      "top" : "var_788_multiplied_wh_by_two",
      "type" : "elementwise",
      "name" : "multiply_wh_by_two_var_788",
      "beta" : 0
    },
    {
      "bottom" : "var_788_multiplied_wh_by_two",
      "alpha" : 2,
      "operation" : 13,
      "weights" : {

      },
      "fused_relu" : 0,
      "debug_info" : "power_wh_var_788",
      "top" : "var_788_power_wh",
      "type" : "elementwise",
      "name" : "power_wh_var_788",
      "beta" : 0
    },
    {
      "top" : "var_788_anchors",
      "w" : 2,
      "h" : 80,
      "name" : "anchors_var_788",
      "nd_rank" : 4,
      "type" : "load_constant",
      "k" : 80,
      "bottom" : "",
      "debug_info" : "anchors_var_788",
      "n" : 3,
      "weights" : {

      },
      "constant_blob" : 243
    },
    {
      "bottom" : "var_788_power_wh,var_788_anchors",
      "alpha" : 1,
      "operation" : 1,
      "weights" : {

      },
      "fused_relu" : 0,
      "debug_info" : "multiply_wh_with_achors_var_788",
      "top" : "var_788_calculated_wh",
      "type" : "elementwise",
      "name" : "multiply_wh_with_achors_var_788",
      "beta" : 0
    },
    {
      "bottom" : "var_788_calculated_xy,var_788_calculated_wh",
      "weights" : {

      },
      "nd_mode" : true,
      "axis" : -1,
      "debug_info" : "concat_coordinates_var_788",
      "top" : "var_788_raw_coordinates",
      "type" : "general_concat",
      "name" : "concat_coordinates_var_788"
    },
    {
      "bottom" : "",
      "k" : 1,
      "n" : 1,
      "weights" : {

      },
      "h" : 1,
      "debug_info" : "normalize_coordinates_var_788",
      "constant_blob" : 245,
      "top" : "normalize_coordinates_var_788_constant_in_scale",
      "w" : 1,
      "type" : "load_constant",
      "name" : "normalize_coordinates_var_788_constant_in_scale"
    },
    {
      "bottom" : "var_788_raw_coordinates,normalize_coordinates_var_788_constant_in_scale",
      "alpha" : 1,
      "operation" : 1,
      "weights" : {

      },
      "fused_relu" : 0,
      "debug_info" : "normalize_coordinates_var_788",
      "top" : "var_788_raw_normalized_coordinates",
      "type" : "elementwise",
      "name" : "normalize_coordinates_var_788",
      "beta" : 0
    },
    {
      "bottom" : "var_788_sigmoid",
      "end" : 5,
      "start" : 4,
      "weights" : {

      },
      "axis" : 0,
      "debug_info" : "slice_object_confidence_var_788",
      "top" : "var_788_object_confidence",
      "type" : "slice",
      "name" : "slice_object_confidence_var_788"
    },
    {
      "bottom" : "var_788_sigmoid",
      "end" : 0,
      "start" : 5,
      "weights" : {

      },
      "axis" : 0,
      "debug_info" : "slice_label_confidence_var_788",
      "top" : "var_788_label_confidence",
      "type" : "slice",
      "name" : "slice_label_confidence_var_788"
    },
    {
      "bottom" : "var_788_label_confidence,var_788_object_confidence",
      "alpha" : 1,
      "operation" : 1,
      "weights" : {

      },
      "fused_relu" : 0,
      "debug_info" : "multiply_object_label_confidence_var_788",
      "nd_mode" : true,
      "top" : "var_788_raw_confidence",
      "type" : "elementwise",
      "name" : "multiply_object_label_confidence_var_788",
      "beta" : 0
    },
    {
      "bottom" : "var_788_raw_confidence",
      "weights" : {

      },
      "mode" : 2,
      "nd_axis" : -1,
      "debug_info" : "flatten_confidence_var_788",
      "top" : "var_788_flatten_raw_confidence",
      "type" : "flatten",
      "name" : "flatten_confidence_var_788"
    },
    {
      "bottom" : "var_788_raw_normalized_coordinates",
      "weights" : {

      },
      "mode" : 2,
      "nd_axis" : -1,
      "debug_info" : "flatten_coordinates_var_788",
      "top" : "var_788_flatten_raw_coordinates",
      "type" : "flatten",
      "name" : "flatten_coordinates_var_788"
    },
    {
      "bottom" : "var_803",
      "weights" : {

      },
      "mode" : 3,
      "debug_info" : "sigmoid_var_803",
      "top" : "var_803_sigmoid",
      "type" : "activation",
      "name" : "sigmoid_var_803"
    },
    {
      "bottom" : "var_803_sigmoid",
      "end" : 2,
      "start" : 0,
      "weights" : {

      },
      "axis" : 0,
      "debug_info" : "slice_coordinates_xy_var_803",
      "top" : "var_803_sliced_coordinates_xy",
      "type" : "slice",
      "name" : "slice_coordinates_xy_var_803"
    },
    {
      "bottom" : "var_803_sliced_coordinates_xy",
      "alpha" : 2,
      "operation" : 1,
      "weights" : {

      },
      "fused_relu" : 0,
      "debug_info" : "multiply_xy_by_two_var_803",
      "top" : "var_803_multiplied_xy_by_two",
      "type" : "elementwise",
      "name" : "multiply_xy_by_two_var_803",
      "beta" : 0
    },
    {
      "bottom" : "var_803_multiplied_xy_by_two",
      "alpha" : -0.5,
      "operation" : 0,
      "weights" : {

      },
      "fused_relu" : 0,
      "debug_info" : "subtract_0_5_from_xy_var_803",
      "top" : "var_803_subtracted_0_5_from_xy",
      "type" : "elementwise",
      "name" : "subtract_0_5_from_xy_var_803",
      "beta" : 0
    },
    {
      "bottom" : "",
      "k" : 40,
      "n" : 1,
      "weights" : {

      },
      "h" : 40,
      "debug_info" : "add_grid_from_xy_var_803",
      "constant_blob" : 247,
      "top" : "add_grid_from_xy_var_803_constant_in",
      "w" : 2,
      "type" : "load_constant",
      "name" : "add_grid_from_xy_var_803_constant_in"
    },
    {
      "bottom" : "var_803_subtracted_0_5_from_xy,add_grid_from_xy_var_803_constant_in",
      "alpha" : 1,
      "operation" : 0,
      "weights" : {

      },
      "fused_relu" : 0,
      "debug_info" : "add_grid_from_xy_var_803",
      "top" : "var_803_added_grid_xy",
      "type" : "elementwise",
      "name" : "add_grid_from_xy_var_803",
      "beta" : 0
    },
    {
      "bottom" : "var_803_added_grid_xy",
      "alpha" : 16,
      "operation" : 1,
      "weights" : {

      },
      "fused_relu" : 0,
      "debug_info" : "multiply_xy_by_stride_var_803",
      "top" : "var_803_calculated_xy",
      "type" : "elementwise",
      "name" : "multiply_xy_by_stride_var_803",
      "beta" : 0
    },
    {
      "bottom" : "var_803_sigmoid",
      "end" : 4,
      "start" : 2,
      "weights" : {

      },
      "axis" : 0,
      "debug_info" : "slice_coordinates_wh_var_803",
      "top" : "var_803_sliced_coordinates_wh",
      "type" : "slice",
      "name" : "slice_coordinates_wh_var_803"
    },
    {
      "bottom" : "var_803_sliced_coordinates_wh",
      "alpha" : 2,
      "operation" : 1,
      "weights" : {

      },
      "fused_relu" : 0,
      "debug_info" : "multiply_wh_by_two_var_803",
      "top" : "var_803_multiplied_wh_by_two",
      "type" : "elementwise",
      "name" : "multiply_wh_by_two_var_803",
      "beta" : 0
    },
    {
      "bottom" : "var_803_multiplied_wh_by_two",
      "alpha" : 2,
      "operation" : 13,
      "weights" : {

      },
      "fused_relu" : 0,
      "debug_info" : "power_wh_var_803",
      "top" : "var_803_power_wh",
      "type" : "elementwise",
      "name" : "power_wh_var_803",
      "beta" : 0
    },
    {
      "top" : "var_803_anchors",
      "w" : 2,
      "h" : 40,
      "name" : "anchors_var_803",
      "nd_rank" : 4,
      "type" : "load_constant",
      "k" : 40,
      "bottom" : "",
      "debug_info" : "anchors_var_803",
      "n" : 3,
      "weights" : {

      },
      "constant_blob" : 249
    },
    {
      "bottom" : "var_803_power_wh,var_803_anchors",
      "alpha" : 1,
      "operation" : 1,
      "weights" : {

      },
      "fused_relu" : 0,
      "debug_info" : "multiply_wh_with_achors_var_803",
      "top" : "var_803_calculated_wh",
      "type" : "elementwise",
      "name" : "multiply_wh_with_achors_var_803",
      "beta" : 0
    },
    {
      "bottom" : "var_803_calculated_xy,var_803_calculated_wh",
      "weights" : {

      },
      "nd_mode" : true,
      "axis" : -1,
      "debug_info" : "concat_coordinates_var_803",
      "top" : "var_803_raw_coordinates",
      "type" : "general_concat",
      "name" : "concat_coordinates_var_803"
    },
    {
      "bottom" : "",
      "k" : 1,
      "n" : 1,
      "weights" : {

      },
      "h" : 1,
      "debug_info" : "normalize_coordinates_var_803",
      "constant_blob" : 251,
      "top" : "normalize_coordinates_var_803_constant_in_scale",
      "w" : 1,
      "type" : "load_constant",
      "name" : "normalize_coordinates_var_803_constant_in_scale"
    },
    {
      "bottom" : "var_803_raw_coordinates,normalize_coordinates_var_803_constant_in_scale",
      "alpha" : 1,
      "operation" : 1,
      "weights" : {

      },
      "fused_relu" : 0,
      "debug_info" : "normalize_coordinates_var_803",
      "top" : "var_803_raw_normalized_coordinates",
      "type" : "elementwise",
      "name" : "normalize_coordinates_var_803",
      "beta" : 0
    },
    {
      "bottom" : "var_803_sigmoid",
      "end" : 5,
      "start" : 4,
      "weights" : {

      },
      "axis" : 0,
      "debug_info" : "slice_object_confidence_var_803",
      "top" : "var_803_object_confidence",
      "type" : "slice",
      "name" : "slice_object_confidence_var_803"
    },
    {
      "bottom" : "var_803_sigmoid",
      "end" : 0,
      "start" : 5,
      "weights" : {

      },
      "axis" : 0,
      "debug_info" : "slice_label_confidence_var_803",
      "top" : "var_803_label_confidence",
      "type" : "slice",
      "name" : "slice_label_confidence_var_803"
    },
    {
      "bottom" : "var_803_label_confidence,var_803_object_confidence",
      "alpha" : 1,
      "operation" : 1,
      "weights" : {

      },
      "fused_relu" : 0,
      "debug_info" : "multiply_object_label_confidence_var_803",
      "nd_mode" : true,
      "top" : "var_803_raw_confidence",
      "type" : "elementwise",
      "name" : "multiply_object_label_confidence_var_803",
      "beta" : 0
    },
    {
      "bottom" : "var_803_raw_confidence",
      "weights" : {

      },
      "mode" : 2,
      "nd_axis" : -1,
      "debug_info" : "flatten_confidence_var_803",
      "top" : "var_803_flatten_raw_confidence",
      "type" : "flatten",
      "name" : "flatten_confidence_var_803"
    },
    {
      "bottom" : "var_803_raw_normalized_coordinates",
      "weights" : {

      },
      "mode" : 2,
      "nd_axis" : -1,
      "debug_info" : "flatten_coordinates_var_803",
      "top" : "var_803_flatten_raw_coordinates",
      "type" : "flatten",
      "name" : "flatten_coordinates_var_803"
    },
    {
      "bottom" : "var_818",
      "weights" : {

      },
      "mode" : 3,
      "debug_info" : "sigmoid_var_818",
      "top" : "var_818_sigmoid",
      "type" : "activation",
      "name" : "sigmoid_var_818"
    },
    {
      "bottom" : "var_818_sigmoid",
      "end" : 2,
      "start" : 0,
      "weights" : {

      },
      "axis" : 0,
      "debug_info" : "slice_coordinates_xy_var_818",
      "top" : "var_818_sliced_coordinates_xy",
      "type" : "slice",
      "name" : "slice_coordinates_xy_var_818"
    },
    {
      "bottom" : "var_818_sliced_coordinates_xy",
      "alpha" : 2,
      "operation" : 1,
      "weights" : {

      },
      "fused_relu" : 0,
      "debug_info" : "multiply_xy_by_two_var_818",
      "top" : "var_818_multiplied_xy_by_two",
      "type" : "elementwise",
      "name" : "multiply_xy_by_two_var_818",
      "beta" : 0
    },
    {
      "bottom" : "var_818_multiplied_xy_by_two",
      "alpha" : -0.5,
      "operation" : 0,
      "weights" : {

      },
      "fused_relu" : 0,
      "debug_info" : "subtract_0_5_from_xy_var_818",
      "top" : "var_818_subtracted_0_5_from_xy",
      "type" : "elementwise",
      "name" : "subtract_0_5_from_xy_var_818",
      "beta" : 0
    },
    {
      "bottom" : "",
      "k" : 20,
      "n" : 1,
      "weights" : {

      },
      "h" : 20,
      "debug_info" : "add_grid_from_xy_var_818",
      "constant_blob" : 253,
      "top" : "add_grid_from_xy_var_818_constant_in",
      "w" : 2,
      "type" : "load_constant",
      "name" : "add_grid_from_xy_var_818_constant_in"
    },
    {
      "bottom" : "var_818_subtracted_0_5_from_xy,add_grid_from_xy_var_818_constant_in",
      "alpha" : 1,
      "operation" : 0,
      "weights" : {

      },
      "fused_relu" : 0,
      "debug_info" : "add_grid_from_xy_var_818",
      "top" : "var_818_added_grid_xy",
      "type" : "elementwise",
      "name" : "add_grid_from_xy_var_818",
      "beta" : 0
    },
    {
      "bottom" : "var_818_added_grid_xy",
      "alpha" : 32,
      "operation" : 1,
      "weights" : {

      },
      "fused_relu" : 0,
      "debug_info" : "multiply_xy_by_stride_var_818",
      "top" : "var_818_calculated_xy",
      "type" : "elementwise",
      "name" : "multiply_xy_by_stride_var_818",
      "beta" : 0
    },
    {
      "bottom" : "var_818_sigmoid",
      "end" : 4,
      "start" : 2,
      "weights" : {

      },
      "axis" : 0,
      "debug_info" : "slice_coordinates_wh_var_818",
      "top" : "var_818_sliced_coordinates_wh",
      "type" : "slice",
      "name" : "slice_coordinates_wh_var_818"
    },
    {
      "bottom" : "var_818_sliced_coordinates_wh",
      "alpha" : 2,
      "operation" : 1,
      "weights" : {

      },
      "fused_relu" : 0,
      "debug_info" : "multiply_wh_by_two_var_818",
      "top" : "var_818_multiplied_wh_by_two",
      "type" : "elementwise",
      "name" : "multiply_wh_by_two_var_818",
      "beta" : 0
    },
    {
      "bottom" : "var_818_multiplied_wh_by_two",
      "alpha" : 2,
      "operation" : 13,
      "weights" : {

      },
      "fused_relu" : 0,
      "debug_info" : "power_wh_var_818",
      "top" : "var_818_power_wh",
      "type" : "elementwise",
      "name" : "power_wh_var_818",
      "beta" : 0
    },
    {
      "top" : "var_818_anchors",
      "w" : 2,
      "h" : 20,
      "name" : "anchors_var_818",
      "nd_rank" : 4,
      "type" : "load_constant",
      "k" : 20,
      "bottom" : "",
      "debug_info" : "anchors_var_818",
      "n" : 3,
      "weights" : {

      },
      "constant_blob" : 255
    },
    {
      "bottom" : "var_818_power_wh,var_818_anchors",
      "alpha" : 1,
      "operation" : 1,
      "weights" : {

      },
      "fused_relu" : 0,
      "debug_info" : "multiply_wh_with_achors_var_818",
      "top" : "var_818_calculated_wh",
      "type" : "elementwise",
      "name" : "multiply_wh_with_achors_var_818",
      "beta" : 0
    },
    {
      "bottom" : "var_818_calculated_xy,var_818_calculated_wh",
      "weights" : {

      },
      "nd_mode" : true,
      "axis" : -1,
      "debug_info" : "concat_coordinates_var_818",
      "top" : "var_818_raw_coordinates",
      "type" : "general_concat",
      "name" : "concat_coordinates_var_818"
    },
    {
      "bottom" : "",
      "k" : 1,
      "n" : 1,
      "weights" : {

      },
      "h" : 1,
      "debug_info" : "normalize_coordinates_var_818",
      "constant_blob" : 257,
      "top" : "normalize_coordinates_var_818_constant_in_scale",
      "w" : 1,
      "type" : "load_constant",
      "name" : "normalize_coordinates_var_818_constant_in_scale"
    },
    {
      "bottom" : "var_818_raw_coordinates,normalize_coordinates_var_818_constant_in_scale",
      "alpha" : 1,
      "operation" : 1,
      "weights" : {

      },
      "fused_relu" : 0,
      "debug_info" : "normalize_coordinates_var_818",
      "top" : "var_818_raw_normalized_coordinates",
      "type" : "elementwise",
      "name" : "normalize_coordinates_var_818",
      "beta" : 0
    },
    {
      "bottom" : "var_818_sigmoid",
      "end" : 5,
      "start" : 4,
      "weights" : {

      },
      "axis" : 0,
      "debug_info" : "slice_object_confidence_var_818",
      "top" : "var_818_object_confidence",
      "type" : "slice",
      "name" : "slice_object_confidence_var_818"
    },
    {
      "bottom" : "var_818_sigmoid",
      "end" : 0,
      "start" : 5,
      "weights" : {

      },
      "axis" : 0,
      "debug_info" : "slice_label_confidence_var_818",
      "top" : "var_818_label_confidence",
      "type" : "slice",
      "name" : "slice_label_confidence_var_818"
    },
    {
      "bottom" : "var_818_label_confidence,var_818_object_confidence",
      "alpha" : 1,
      "operation" : 1,
      "weights" : {

      },
      "fused_relu" : 0,
      "debug_info" : "multiply_object_label_confidence_var_818",
      "nd_mode" : true,
      "top" : "var_818_raw_confidence",
      "type" : "elementwise",
      "name" : "multiply_object_label_confidence_var_818",
      "beta" : 0
    },
    {
      "bottom" : "var_818_raw_confidence",
      "weights" : {

      },
      "mode" : 2,
      "nd_axis" : -1,
      "debug_info" : "flatten_confidence_var_818",
      "top" : "var_818_flatten_raw_confidence",
      "type" : "flatten",
      "name" : "flatten_confidence_var_818"
    },
    {
      "bottom" : "var_818_raw_normalized_coordinates",
      "weights" : {

      },
      "mode" : 2,
      "nd_axis" : -1,
      "debug_info" : "flatten_coordinates_var_818",
      "top" : "var_818_flatten_raw_coordinates",
      "type" : "flatten",
      "name" : "flatten_coordinates_var_818"
    },
    {
      "bottom" : "var_788_flatten_raw_confidence,var_803_flatten_raw_confidence,var_818_flatten_raw_confidence",
      "weights" : {

      },
      "nd_mode" : true,
      "debug_info" : "concat_confidence",
      "axis" : -2,
      "top" : "raw_confidence",
      "type" : "general_concat",
      "name" : "concat_confidence",
      "attributes" : {
        "is_output" : 1
      }
    },
    {
      "bottom" : "var_788_flatten_raw_coordinates,var_803_flatten_raw_coordinates,var_818_flatten_raw_coordinates",
      "weights" : {

      },
      "nd_mode" : true,
      "debug_info" : "concat_coordinates",
      "axis" : -2,
      "top" : "raw_coordinates",
      "type" : "general_concat",
      "name" : "concat_coordinates",
      "attributes" : {
        "is_output" : 1
      }
    }
  ],
  "transform_params" : {
    "image" : {
      "bias_a" : 0,
      "bias_g" : 0,
      "bias_r" : 0,
      "bias_b" : 0,
      "center_mean" : 0,
      "is_network_bgr" : 0,
      "scale" : 0.0039215688593685627
    }
  },
  "storage" : "model.espresso.weights",
  "metadata_in_weights" : [

  ],
  "properties" : {

  },
  "analyses" : {

  },
  "format_version" : 200
}